model/model.pth (torch, 67655 bytes, 10 tensors)

linear1.weight f4 [24, 12]
000000 84 11 73 bd 30 f2 12 bd f8 c8 3c 3e aa 92 42 be
       -0.059342876 -0.0358755 0.18436038 -0.1900126
000010 cb cd 8b be 75 8a 67 3d b9 b6 17 3e 91 0d 5d 3e
       -0.27305445 0.056528527 0.14815797 0.21587206
000020 5d 82 43 3d 8b fb 88 be 2d 05 77 3e b0 33 83 3c
       0.047731746 -0.26754412 0.24123068 0.016015857
000030 b2 bf 56 be 36 23 db bd 70 be ee bc be 7e 28 be
       -0.20971563 -0.10700075 -0.029143542 -0.16454598
000040 48 e8 11 bd b8 18 5c 3e 29 37 93 be 98 ed c1 3d
       -0.03562191 0.21493804 -0.2875302 0.094691455
000050 d4 63 25 be 24 cb a6 3d ed c2 8d be d4 ba c7 3d
       -0.16151363 0.08144215 -0.2768778 0.097524315
000060 86 3e 69 bd 68 ba 38 be 00 be 15 bc 41 52 0f 3e
       -0.056944393 -0.18039858 -0.009139538 0.13996221
000070 a2 b8 34 3e da 34 6f 3e 33 f9 94 bd 58 0a 03 3e
       0.17648557 0.23360005 -0.072740935 0.12796915
000080 0a ae 5d bd 01 ea 95 3e d2 be 80 3d 7c d3 06 3e
       -0.054121055 0.29280093 0.06286396 0.13166612
000090 e0 37 85 bc e0 41 22 3c 00 af 81 ba 00 4f 6e 3d
       -0.016261995 0.009903401 -0.0009894073 0.05818081
0000a0 98 92 23 be ed 55 b1 3c 5b 72 ff bd 25 32 b5 bd
       -0.1597389 0.021647418 -0.124729834 -0.08847455
0000b0 ab 56 8d be 4e 77 d8 bd a7 51 5f 3e b0 ef 84 3d
       -0.27605185 -0.105696306 0.21808492 0.06491029
0000c0 7b 70 56 be b0 c6 8d 3c 4e 21 78 be 24 68 87 3e
       -0.20941345 0.017306656 -0.24231455 0.2644664
0000d0 9a 79 69 3e 26 50 36 3d 0c 77 ff 3c 32 c9 c7 bd
       0.22800294 0.04451003 0.031184696 -0.09755172
0000e0 95 e9 58 3e 8f ff ad bd 74 0e d0 3d 51 35 11 3e
       0.21182854 -0.084960096 0.10159007 0.14180495
0000f0 ec 1f 34 3e 38 f6 76 be 58 1d 4a 3d 0e 16 53 be
       0.17590302 -0.24117362 0.04934439 -0.20613882
000100 80 26 c1 bc a0 bf c1 3c 24 04 90 bd 60 54 5e 3d
       -0.023577929 0.023650944 -0.0703204 0.054279685
000110 a0 d6 5a bc 00 6a 5d bc d6 59 cb bd b9 70 4f be
       -0.013356835 -0.013514042 -0.09929244 -0.20257844
000120 d5 c7 80 be 40 3e 16 3c 26 0e 86 3e d6 35 51 3e
       -0.2515246 0.009170115 0.2618267 0.20430693
000130 e4 ab 28 be 71 52 5f 3e d6 39 4f 3e 3e 79 1b 3a
       -0.16471821 0.21808793 0.20236906 0.0005930847
000140 0c c6 4c be 16 1c 91 3e d2 0a c5 bd 49 57 b2 bc
       -0.19997424 0.2834174 -0.096212044 -0.021770136
000150 a1 35 fb 3d de ee 07 be 1c 5d 47 bd 58 f7 49 be
       0.12266088 -0.13274714 -0.04867278 -0.1972326
000160 b5 07 34 3e 2a 13 f7 bd f0 b0 23 be ee 13 2f 3e
       0.17581065 -0.12064202 -0.15985465 0.17097446
000170 36 3e 57 3e 7e b9 6a 3e fe bc 87 3e bf 8a 71 3e
       0.21019825 0.22922322 0.26511377 0.23588084
000180 17 5f e3 3d 66 58 5c be 0c 77 93 3e 5c e4 85 bd
       0.11102121 -0.21518096 0.28801763 -0.06537697
000190 5e 1e af 3d 08 44 32 be f3 ba 45 be e1 87 54 be
       0.08550714 -0.17408764 -0.19309597 -0.20754959
0001a0 93 f4 65 3e 6d 88 67 3e b4 0a bb bd 52 02 49 3e
       0.22456579 0.22610636 -0.09132901 0.19629791
0001b0 03 15 d2 3d b0 33 fa 3d d6 d4 4c be 7e 4d 77 3e
       0.10257914 0.1221689 -0.20003065 0.24150655
0001c0 ab 1f 5d 3e 79 81 83 be 57 aa 4e 3d bd 5c 50 3e
       0.21594112 -0.25684717 0.050455417 0.20347877
0001d0 82 96 90 bd 73 43 c4 3c 86 dd 19 be e4 8d 87 3e
       -0.07059957 0.023957944 -0.1502591 0.2647544
0001e0 b4 96 c1 bd 74 e2 ce bd f6 46 cc bd 27 81 f5 3d
       -0.094525725 -0.10101786 -0.09974472 0.119875245
0001f0 bc 1c da 3c 65 99 32 3e 8e 3b 39 be 29 fd 2c bd
       0.02662503 0.17441328 -0.18089125 -0.04223362
000200 05 5f 78 3e 03 ba 21 3e a8 16 f1 bb 94 a0 7e be
       0.24254997 0.15793614 -0.007357437 -0.24865943
000210 c5 98 31 3d 47 2a 8c be 9e cb 8e bd e4 0f 56 bc
       0.043358583 -0.27376005 -0.06972431 -0.013065312
000220 b0 cf 47 3e 8f ae 80 3e 8e 99 8e 3c ee 02 4a bb
       0.1951282 0.25133178 0.017407205 -0.00308245
000230 0e 67 6b 3e c8 4a 64 3e 60 e2 86 3c 24 9f dc 3d
       0.22988531 0.22294152 0.016465366 0.10772541
000240 3e d2 19 be 15 c2 8c be 18 8f ba 3d f8 46 03 bd
       -0.15021607 -0.27491823 0.09109324 -0.032050103
000250 a8 a8 e0 3d 45 b3 5c 3d c3 03 db bd 0a c0 74 3e
       0.109696686 0.053881902 -0.10694077 0.23901382
000260 6a 14 3d bb ef 21 82 3e f0 aa 2f 3e f4 bd 99 3e
       -0.002885128 0.25416514 0.17155051 0.30027735
000270 a6 7b 8c be b0 46 91 3e 8e 6d 1c 3e ff 9e 36 be
       -0.27438086 0.28374243 0.15276167 -0.1783409
000280 4e 61 6e 3e 93 6f cd 3d b7 e5 1b be 74 13 ed bd
       0.23279306 0.10031047 -0.15224348 -0.11575976
000290 15 53 37 3e 53 e0 41 3e 87 74 0d 3e ba dd 55 bd
       0.17902787 0.18933229 0.13813983 -0.052213408
0002a0 ab 17 d5 3d 28 ab 05 3e 40 32 9e 3c 54 82 82 be
       0.10404905 0.13053572 0.01931107 -0.25490057
0002b0 06 77 7f be 84 6d 82 be a5 34 28 3e 6d 7b 0a be
       -0.24947748 -0.2547418 0.16426332 -0.13523646
0002c0 73 63 cb bd a5 15 a5 bd 68 35 48 be f0 e1 8b 3e
       -0.09931078 -0.08060769 -0.19551623 0.27320814
0002d0 8a dd c5 3d 90 c4 d1 bc 06 6d 0e be 34 78 8f 3d
       0.09661396 -0.025606424 -0.13908777 0.07005349
0002e0 84 1f e2 bd f7 10 85 be 48 d6 8a 3e 55 1f 10 be
       -0.110411674 -0.25989506 0.2711661 -0.14074452
0002f0 05 4f 02 be 7c ba 9f 3d 68 7a e9 bc 30 ec 92 3e
       -0.12725456 0.07799241 -0.02850075 0.28695822
000300 30 82 1e be 06 0f 85 3e 76 f8 92 3e ae 98 0a be
       -0.1547935 0.25988024 0.28705186 -0.13534805
000310 bc cb 51 be 81 ca 7d 3e 80 9a 42 3e 8d 38 6f be
       -0.20487875 0.2478428 0.1900425 -0.23361416
000320 83 7b 3b bd 2a b5 ce bd 56 27 1b 3d 41 b5 b4 3c
       -0.045772087 -0.10093148 0.03787931 0.022059085
000330 0b f5 c8 bd 28 44 67 3e 52 d4 e2 bd 11 1c 53 3e
       -0.09812363 0.22584593 -0.11075653 0.20616175
000340 f8 f9 35 be 9d 87 78 3e 1a 71 84 3e f1 8f 4a 3e
       -0.17771137 0.24270482 0.2586754 0.19781472
000350 dd 13 64 be a5 8e 17 3e 1c 35 83 bd 0b b4 6a 3e
       -0.22273202 0.14800508 -0.06406614 0.22920243
000360 fb 3d 1a 3e 76 9e 40 3e fe dc 72 be fc ac 84 bd
       0.15062706 0.18810448 -0.23717114 -0.06478307
000370 a7 e3 e4 bd 0e e5 e3 bd ec 91 d0 3d 1b 12 15 3d
       -0.11176234 -0.11127673 0.101840824 0.03639422
000380 cb 27 93 be 0b 1c c5 3d 59 7a 43 3e d7 2e cb 3d
       -0.28741297 0.096244894 0.1908964 0.09921043
000390 e0 69 92 3e d0 4d c0 3d e8 4d b6 3d c2 d9 5f be
       0.285964 0.093898416 0.08901578 -0.21860412
0003a0 1d ee 83 be 28 9f 7e 3d f9 a3 2c be 40 06 ea bb
       -0.25767604 0.062163502 -0.16859426 -0.0071418583
0003b0 a0 15 63 3c 00 6b 7e 3b c0 e5 00 bc 50 6d 80 be
       0.013860136 0.0038821101 -0.007867277 -0.250834
0003c0 00 2e 06 3b 00 3b 34 be 48 79 7d be 3b b7 f4 3c
       0.0020474195 -0.17600632 -0.24753296 0.029872527
0003d0 5e ca 89 3d d2 21 5b be 95 2a 01 be 1e 83 e8 bd
       0.067280516 -0.2139962 -0.126139 -0.113531336
0003e0 79 45 e8 3d f6 8c 20 be 3b 97 a6 3d 60 ac fe 3d
       0.11341376 -0.15678772 0.08134314 0.12435222
0003f0 aa a4 0c be 50 58 28 3e b0 95 4c be e0 98 60 be
       -0.1373469 0.16439939 -0.19978976 -0.21933317

linear1.bias f4 [24]
000000 d2 40 1c be 4a c1 83 be 30 18 5a 3e 16 d0 03 bd
       -0.15259102 -0.25733405 0.2129829 -0.032180868
000010 21 cf 23 3e 84 fd 85 bd 95 ce 81 3d a2 df 8f 3e
       0.15996982 -0.06542495 0.063382305 0.28100306
000020 f2 20 94 3e 70 ae 2b bd 48 ec 15 bb ca 31 ea 3d
       0.28931385 -0.041914403 -0.002287643 0.11435278
000030 2a be 7e be 0e 60 49 be 9f ba 88 3e 52 4c 34 be
       -0.2487723 -0.19665548 0.2670488 -0.17607239
000040 8a 27 6a bd 2f a2 3c be 22 0f 85 bd d7 bd 63 be
       -0.057166614 -0.18421243 -0.06497027 -0.22240387
000050 ef 00 2d bd 9d d9 cf 3d be d2 e0 bc e5 ec aa bd
       -0.04223722 0.10148928 -0.02744424 -0.08345965

linear2.weight f4 [48, 24]
000000 49 99 2c be 8b 2c 12 be 65 51 6e 3e 04 00 be bc
       -0.16855349 -0.14274804 0.23273237 -0.023193367
000010 66 83 1b be 3e 9f 3c 3e 98 b3 a1 bd 28 c4 43 bd
       -0.15186843 0.18420121 -0.07895583 -0.04779449
000020 84 8a d8 3d 04 d2 7e bc b5 b2 02 3e f3 7d 5b 3e
       0.10573295 -0.015553001 0.12763484 0.21434765
000030 9a 77 2b 3e 78 6c e3 3d 0f 60 94 3d 13 ac c6 3d
       0.16744843 0.11104673 0.07244884 0.09700789
000040 4c 68 db bd 36 d5 49 bd ec 41 a5 bd a9 fe 38 be
       -0.107132524 -0.0492756 -0.08069214 -0.18065895
000050 96 b1 16 be 85 cd c2 bd 4d cf fa bc 76 db 0a bb
       -0.14716181 -0.09511856 -0.030616427 -0.0021187938
000060 3e 2e 08 be a3 ca 19 be 1b 0e 03 3e f1 99 ad bd
       -0.1329889 -0.15018706 0.1279835 -0.084766276
000070 03 cd c4 3b f6 05 45 be 06 dc 40 bc c6 8a 28 3e
       0.0060058846 -0.19240555 -0.011771208 0.16459188
000080 20 b7 23 3e 2c c0 16 be 3a ba da 3d 15 20 c1 bb
       0.15987825 -0.14721745 0.10680051 -0.005893717
000090 3f 1e 22 3b 7e e1 58 3e 12 24 05 be b1 2c 09 3d
       0.0024737266 0.21179768 -0.13002041 0.033489887
0000a0 7d 58 ae 3d 2a c4 c6 3d 17 d4 f0 bd e0 06 50 be
       0.085129716 0.09705384 -0.11759203 -0.20315123
0000b0 ee b6 12 bb 2a 47 17 be 4b 99 3b 3e c1 a4 35 3e
       -0.0022386867 -0.1477324 0.18320195 0.1773863
0000c0 37 a8 cc 3c 3c f4 25 3e bf 96 93 bc 11 6d ed bd
       0.024982555 0.1620645 -0.018016217 -0.115930684
0000d0 d5 e4 a1 3d b9 31 c7 bd 79 0b 35 bd f5 d1 3e 3e
       0.07904974 -0.09726281 -0.044200394 0.1863478
0000e0 10 92 2e 3e 00 21 65 3c 38 ab 3e 3e 1e 5e eb bc
       0.17047906 0.013984919 0.18620002 -0.028731402
0000f0 81 e6 e9 bd 2f 56 89 bd 9b a7 fd 3d 70 e1 9a 3d
       -0.11420918 -0.06705891 0.12385484 0.0756253
000100 eb 6c 2f be ba fc 40 3d 01 28 49 be 54 13 9a 3d
       -0.17131393 0.04711602 -0.19644167 0.07523218
000110 8a 5b 3c 3e e4 12 33 be f5 a8 97 3d f1 72 cc bd
       0.18394294 -0.17487675 0.07405273 -0.09982861
000120 32 10 02 be f8 8d 5b bd 19 8f d9 bd 9f e1 30 be
       -0.1270149 -0.05360219 -0.10622997 -0.17273568
000130 b0 ce 3b 3d 40 b4 e1 bb 76 4d 48 be a6 73 49 be
       0.04585141 -0.0068879426 -0.19560799 -0.19673023
000140 10 a0 1b 3e 50 fa 83 3d 90 3d 93 3c 64 ff c5 3d
       0.15197778 0.06444228 0.017973691 0.096678525
000150 68 03 06 3d d4 30 89 3d 3c d8 07 be e0 86 bc 3c
       0.032718092 0.06698766 -0.1326608 0.023013532
000160 24 89 2d bd 52 f5 04 be 3e 2e 23 be 66 63 12 3e
       -0.042367116 -0.12984207 -0.15935609 0.1429573
000170 10 4e 19 bc 80 6b 70 3c 52 96 97 bd 14 79 06 be
       -0.00935699 0.0146740675 -0.07401718 -0.13132125
000180 e8 0f de 3d 7c b9 1f bd 73 e6 3e be e4 de 9a bd
       0.108428776 -0.03899525 -0.18642597 -0.07562044
000190 b5 f3 06 be 3c 89 cd bd 1c 64 22 3d 03 51 29 be
       -0.13178904 -0.10035941 0.039646253 -0.1653481
0001a0 04 43 0c be f8 62 85 3d 9c 93 94 3d 6e f2 0a 3e
       -0.1369744 0.065130174 0.07254717 0.13569042
0001b0 17 7d b6 bd 70 fd 04 3d df 82 1f be 26 c2 f2 bd
       -0.08910578 0.03246826 -0.15577267 -0.11853437
0001c0 80 3d f0 3c a7 54 3c be 8c e0 12 3e e0 ec 03 bc
       0.0293262 -0.18391667 0.1434347 -0.008052081
0001d0 38 ce d2 3d 20 2d 27 bd a0 e4 85 bc 06 f3 f2 bd
       0.10293239 -0.04081452 -0.016344368 -0.11862759
0001e0 08 36 c7 bc cc 15 9a 3d 0e 5c 1b be 2c 99 86 3d
       -0.024317756 0.07523689 -0.15171835 0.06572184
0001f0 70 2a 52 3d 68 ca 23 be a8 46 2b bd c8 35 e9 3c
       0.051310003 -0.1599518 -0.04181543 0.028468028
000200 fc 44 fe bd 40 79 2d 3e b2 93 4e be 80 68 17 3c
       -0.124155015 0.16940784 -0.20173529 0.009241223
000210 64 0f db 3d 04 20 0a 3d fc 0e b2 3d 98 1d dc 3c
       0.10696295 0.03372194 0.08694264 0.02686958
000220 a8 70 d7 3d 7a 2a 1d 3e 16 6f 41 be 3c a6 06 be
       0.10519534 0.15348235 -0.18890032 -0.13149351
000230 bc 02 07 3d 61 82 c6 bd 50 c0 48 bc d6 64 a9 bd
       0.032961592 -0.096928366 -0.012252882 -0.08271186
000240 fa 4d 3e be 80 47 a8 3d 20 b9 4b 3e ed dd 73 bd
       -0.18584433 0.082167625 0.19894838 -0.059537817
000250 eb 43 bf 3d e4 3e 28 3e 9f 0f 10 3e 95 28 42 3e
       0.09339126 0.16430241 0.14068459 0.18960793
000260 9d aa 20 3e ac dc b1 3d 0e ee ee bd 0a de cc 3d
       0.15690084 0.08684668 -0.11666499 0.10003288
000270 8a 78 e4 bd 29 06 10 be b0 90 e0 3c 01 1b 9b bd
       -0.111558035 -0.1406485 0.027412742 -0.0757351
000280 d0 71 ae bd cc e2 69 3d 33 ae 1a 3e c3 5a c8 bd
       -0.08517802 0.057101056 0.15105514 -0.097829364
000290 76 23 fe bd 0d a4 7f bc 63 cd 10 3e 56 84 c4 bd
       -0.124091074 -0.015603078 0.14140849 -0.095955536
0002a0 6f 57 42 3e 69 c8 3b be b5 a2 f4 bd a1 52 34 3e
       0.18978666 -0.18338169 -0.119450964 0.17609645
0002b0 69 89 04 3e 72 40 c2 bd 93 90 50 bb 58 6b aa 3d
       0.12943043 -0.09484948 -0.0031824454 0.083212554
0002c0 ac af 45 bd a3 87 b5 3d ad 48 d0 3d e6 08 59 3e
       -0.048263237 0.08863761 0.10170112 0.211948
0002d0 fa ad 96 bc 5c 3d 48 3e e4 dc cf bd d9 5f 69 3d
       -0.018393505 0.19554657 -0.101495534 0.056976173
0002e0 23 a9 21 be c2 8b 83 3c 64 a9 23 3e c8 e3 2c be
       -0.15787177 0.016057853 0.15982586 -0.16883767
0002f0 50 27 39 3b bc d7 d5 3d 31 bc d4 bd e5 35 be bd
       0.0028252192 0.10441539 -0.10387457 -0.09287623
000300 e5 60 17 be b6 6d 81 bd 0d 3b 57 be 63 71 e5 3c
       -0.14783056 -0.06319754 -0.2101862 0.028008169
000310 1b 46 ff 3c 46 02 37 3e 8e 23 be 3c ca ca 7b 3c
       0.031161359 0.17871961 0.023210313 0.015368173
000320 57 61 ba 3c 0a c0 17 3e ab 4d 12 be 79 01 b4 3d
       0.022751493 0.14819351 -0.1428744 0.087893434
000330 46 88 59 bd ae 5b 1c 3e c9 de 9c 3d b5 8e 41 3c
       -0.053108476 0.15269348 0.076596804 0.011813809
000340 ac 96 c4 bd 32 1b 98 3c a4 f5 8a bd 16 38 8c bd
       -0.09599051 0.018567655 -0.067851335 -0.06846635
000350 79 04 35 3e ed 36 0b 3e 6a a4 a0 3b 70 c3 24 3e
       0.17677487 0.13595171 0.004902412 0.16090178
000360 9a 3b 2f be fa 7c 34 be 20 d0 94 bd 21 94 92 3d
       -0.1711258 -0.176258 -0.07266259 0.071571596
000370 50 6b 99 3d f8 6b 31 bd b3 08 0f 3d cd a9 4b be
       0.07491171 -0.043315858 0.034920406 -0.19888993
000380 88 ee d6 3d ca 30 48 be ea b5 6e 3b 25 bb ec bd
       0.10494715 -0.19549862 0.0036424347 -0.115591325
000390 95 13 b6 bd bf 4c 31 be 3b d3 a8 bd 61 33 28 bd
       -0.08890454 -0.17314433 -0.08243414 -0.041064624
0003a0 21 61 6e 3d 4a 0b 1f 3d f3 ef 36 3d 8e 6e 18 3e
       0.058198098 0.038829125 0.044662427 0.14885923
0003b0 39 03 ea bd a9 4c 31 3e a7 94 d1 3d c3 9e f1 3d
       -0.11426396 0.173144 0.10233431 0.117978595
0003c0 07 71 3f be 78 98 8a 3d 8a 39 83 bd 20 03 ed bc
       -0.1869546 0.06767362 -0.06407459 -0.028932154
0003d0 c8 bc c3 bd 44 2b e5 3d 70 77 5b 3c 31 dd 4a be
       -0.095574915 0.11189893 0.013395175 -0.1981094
0003e0 aa 90 83 bd 10 2c db 3c d0 da ec bd f8 5a 9a 3c
       -0.06424077 0.02675441 -0.11565173 0.018842205
0003f0 20 9a 23 be 08 72 01 be 8c 5c 18 bd bb 38 1c be
       -0.15976763 -0.12641156 -0.037197635 -0.15256016

linear2.bias f4 [48]
000000 6f cb ca bb ab 07 4a 3d b8 65 77 bc 00 86 31 bd
       -0.006188802 0.04932372 -0.015099935 -0.043340683
000010 0c bc d5 3d 54 fe 9a bd 98 d0 2f be 15 d5 84 3d
       0.10436258 -0.075680405 -0.17169416 0.06485955
000020 ba 50 c4 3c 24 b6 04 3e 48 0c 7b 3d 37 a8 49 be
       0.023964275 0.12960106 0.06129101 -0.19693075
000030 8d 0d c4 bd 00 29 31 be 58 4e 0e bd b0 3e 0e 3e
       -0.09572897 -0.17300797 -0.034742683 0.13891101
000040 5a 22 2a be ed 41 a0 3d 79 7c 38 3e a6 2a 0a 3e
       -0.16614667 0.07825074 0.18016233 0.13492832
000050 47 59 17 3e 42 7c 3a 3e 3d 8e 0d 3c 71 aa ae bd
       0.1478015 0.18211463 0.008639869 -0.08528603
000060 70 b4 80 bd 4b 03 53 3d 2e 7f 28 bc 29 86 6f bd
       -0.06284416 0.051516812 -0.010284228 -0.058477554
000070 3b 46 4a 3e de f1 24 be c4 28 38 bd b3 e2 c9 3d
       0.19753353 -0.1610789 -0.044960752 0.098576926
000080 cc ae 4c be 18 78 37 be d9 0f 25 3e 59 77 1d 3e
       -0.19988555 -0.17916906 0.16119327 0.15377559
000090 3d 35 05 be 48 17 bb bc 6b 3c 85 3d e8 88 4a 3b
       -0.1300859 -0.02283825 0.065056644 0.0030904356
0000a0 6a b3 0d 3e e9 42 d8 bd 4c 7c 09 3e a7 52 af bc
       0.13837972 -0.10559637 0.13426322 -0.021401716
0000b0 30 80 37 be 1c 5c b7 3d 68 5a b1 bd 40 bc 0f 3e
       -0.17919993 0.08953115 -0.08659822 0.14036655

linear3.weight f4 [128, 48]
000000 82 e4 c0 bd 68 8e c8 bd 74 44 6e 3d 50 85 0c bc
       -0.094185844 -0.09792787 0.05817075 -0.008576706
000010 04 be 48 3d fe 5b d0 bd c2 0f b0 3d 64 6a 97 3d
       0.049009338 -0.10173796 0.085967556 0.07393339
000020 a0 76 56 3d 50 f9 04 3c c0 e6 63 bc 10 f3 0b 3c
       0.052359223 0.008116081 -0.013909996 0.008541837
000030 f2 e3 b0 bd 10 0b 63 bc 00 03 a8 bb a9 a5 fa bd
       -0.08637227 -0.013857618 -0.0051273108 -0.122386284
000040 dc 71 ce 3d 8c be 20 bd d4 c6 2c 3d 78 b9 f0 3c
       0.10080311 -0.03924422 0.042181805 0.029385313
000050 80 b9 90 ba ea 83 09 be 0c b4 f9 bd 64 b5 e5 3d
       -0.0011041611 -0.13429227 -0.12192544 0.11216238
000060 1d cf 97 bd 00 c2 b0 bd 6d 7b 95 bd 40 fb 77 bd
       -0.074125506 -0.086307526 -0.07298932 -0.060542345
000070 84 5a 65 bd 3d 1e 12 be 6c fa b7 3d f4 d5 c6 bd
       -0.055994526 -0.14269347 0.08983311 -0.09708777
000080 52 de 37 bd 94 b8 69 3d 1a 2b b0 3d 34 26 d3 3d
       -0.044889756 0.057060793 0.08601971 0.10310021
000090 a2 22 8f bd 80 7e 2d 3b bc 2b 3c 3d 06 68 24 bd
       -0.069890276 0.0026473105 0.045940146 -0.040138267
0000a0 e8 44 13 3e 58 9e d0 3d ac 04 0e 3e c8 4c 05 3d
       0.14381754 0.10186452 0.1386897 0.032543927
0000b0 9a d3 9f 3d 26 e9 d4 bd 58 48 90 bd 48 63 c2 3d
       0.07804032 -0.10396032 -0.070450485 0.09491593
0000c0 77 66 af bd 6d 56 0d 3e a5 5b e1 3d c7 e6 fc bd
       -0.085644655 0.138025 0.11003808 -0.12348705
0000d0 96 98 7f bd f8 5e a0 3c 1d 02 cf 3d 20 45 0c be
       -0.062401377 0.019576535 0.10107825 -0.13698244
0000e0 41 55 82 3d 7c 5e 8b bd 04 63 04 3e 0c cb 7e bd
       0.06363917 -0.06805131 0.12928396 -0.06220536
0000f0 16 3c 03 bd 3e e5 85 3d 44 c6 cd 3d 89 d1 b4 bd
       -0.032039724 0.06537865 0.10047582 -0.08829028
000100 42 fc d4 bc cb 08 0f 3e e2 b7 08 ba a0 b6 fc 3d
       -0.025999192 0.13968198 -0.0005215389 0.123395205
000110 0e 8e 94 3d a0 d5 a0 bb 0f 90 f7 3c b0 87 5e 3d
       0.07253657 -0.0049082786 0.03022006 0.05432862
000120 01 6a 96 3d 48 3f 34 bc 21 70 10 be 6a 11 f4 bd
       0.073444374 -0.011001416 -0.14105274 -0.11917384
000130 f9 c9 e4 bc e6 2f 85 3d 7c a6 5f bd f5 2c f8 bd
       -0.02792834 0.065032765 -0.05460213 -0.1211795
000140 30 6c 45 3d b2 a9 10 bc f9 b9 f2 3d 25 09 33 3d
       0.04819888 -0.008829521 0.11851878 0.043709893
000150 dc 09 12 3e ec ec f0 bd 67 ab c5 3d 42 74 cb bd
       0.14261574 -0.11763939 0.09651833 -0.09934284
000160 56 3b 02 be 10 bb ed 3d d7 15 77 3d 33 db 72 3d
       -0.12717947 0.11607945 0.060323562 0.059291076
000170 37 d1 9f bd ba 20 df bd a6 89 c6 3c 76 83 dd bb
       -0.078035764 -0.10894914 0.024235558 -0.006760056
000180 4c 01 dd 3d 44 03 d5 3d 37 d3 93 bd b0 8e 84 3d
       0.10791263 0.104010135 -0.072180204 0.06472528
000190 4a d8 a6 bd 30 27 b1 bd 6a cc ad 3d 82 01 8b bd
       -0.081467226 -0.086500525 0.084862545 -0.06787397
0001a0 18 13 fe 3c 40 8d d4 3b dc e5 ee 3d 9c 8b 8e 3d
       0.031014964 0.006486565 0.11664936 0.06960222
0001b0 e0 1d 0d bc 40 f6 f1 bc 9c 3f c2 3d 76 9e 92 bd
       -0.00861308 -0.029536366 0.09484789 -0.0715913
0001c0 26 61 a7 bd 82 6f d7 bd 64 93 ec bd 60 27 0a 3e
       -0.081728265 -0.10519315 -0.1155155 0.13491583
0001d0 5d 7d ad bd c6 4b e1 bd 16 34 fc bd 50 2a a2 3c
       -0.08471177 -0.11000781 -0.12314622 0.019795567
0001e0 7c 01 b0 3d 20 60 4f 3d a8 00 d6 bd 2c cc 12 3e
       0.08594033 0.05062878 -0.10449344 0.14335698
0001f0 24 ab 3b 3d 5a 12 30 bd e4 b3 fb bd c8 5b 68 3d
       0.04581751 -0.04298625 -0.12290171 0.056728154
000200 cc 76 fd 3d 30 0b ea 3d 20 88 b4 bc 00 3d ad bd
       0.12376174 0.11427915 -0.022037566 -0.084589005
000210 10 de 45 bc df 95 a7 bd 64 49 98 3d 9c fd 5b bd
       -0.01207687 -0.081828825 0.07435873 -0.053708658
000220 36 d8 b4 3d 2e 1b 0a 3e 08 bb a9 3c 58 33 d3 bd
       0.088303015 0.1348693 0.020719066 -0.103125274
000230 72 aa af 3d 24 d5 ba bc f6 82 99 3d e8 d5 14 bd
       0.08577432 -0.022806711 0.07495682 -0.03633681
000240 d2 08 17 be 7e 71 99 bc e8 94 fe bd 6c 90 e3 3d
       -0.14749458 -0.018730875 -0.12430745 0.11111531
000250 f0 fd 3a bc a8 e4 6f bd fd 75 d1 3d a3 c1 e8 bd
       -0.0114130825 -0.058567673 0.102275826 -0.11365058
000260 17 cc 06 be 24 97 87 bd 63 da ea bd 6a c9 cd bd
       -0.13163792 -0.06620625 -0.11467435 -0.10048182
000270 b0 67 4d 3c a0 45 fe bd 78 c3 09 3e 9d 80 ff 3c
       0.012536928 -0.12415624 0.13453472 0.031189257
000280 0d 5d 1d 3d ff ec 8a 3d e4 23 03 be 2e d3 07 be
       0.03841882 0.06783485 -0.1280666 -0.13264152
000290 6f df 2f 3d 29 ff dd 3d ce 20 1e be 00 42 cd 3b
       0.042937692 0.108396836 -0.15442201 0.0062639713
0002a0 90 66 ea 3c 12 9a 56 bb 75 f8 f9 3d a3 b4 2b bb
       0.028613359 -0.0032745642 0.122055925 -0.0026200197
0002b0 64 ba 9f bc a0 ee 1a 3d 86 09 ce bd 28 0c 51 bd
       -0.019498058 0.037825227 -0.1006041 -0.051036984
0002c0 b4 66 e3 bd 9f 77 03 bd 93 fe fb 3c 02 8f 81 3d
       -0.111035734 -0.0320965 0.030761039 0.06326105
0002d0 72 61 eb bc 00 aa 88 3d 74 de 2d bd 14 6e c2 bd
       -0.028732989 0.0667305 -0.042448476 -0.09493652
0002e0 87 4c 00 3e 60 99 a7 bb 61 43 74 3d d3 7e cb 3d
       0.12529193 -0.0051147193 0.05963457 0.09936299
0002f0 2a 4a 9a 3d b4 8f c0 bd 08 6b f5 3d 5b e0 0f 3d
       0.07533677 -0.09402409 0.11983305 0.03512607
000300 e7 97 f8 bd 40 3f 0a bb f0 0e 3c 3c 20 88 f2 3b
       -0.12138348 -0.002109483 0.011478171 0.0074014813
000310 2c 8b fa 3d 2a 6e 89 bd 77 31 c0 bd 5c bd 36 3d
       0.12233576 -0.06710465 -0.09384435 0.04461418
000320 e7 42 c1 bd 70 38 90 bc df 9a 94 bd 07 26 db bd
       -0.09436589 -0.017605036 -0.07256102 -0.107006125
000330 f4 69 6b 3d ea 9e cb 3d 5b fa 03 be e4 4e 74 bd
       0.05747409 0.0994242 -0.12888472 -0.05964555
000340 d7 17 87 bd 08 5a c4 3c 4a 3b 0d 3e d5 8f d7 bd
       -0.06596344 0.023968711 0.13792148 -0.10525481
000350 6a 34 e8 bd bc d8 fd 3d fa 7a 01 bd a1 19 8c bd
       -0.11338122 0.123948544 -0.03161142 -0.06840826
000360 1a 22 d2 3d 36 e6 5e bd 3f 3d 82 bd 3a 2e 49 bd
       0.102604106 -0.054418765 -0.06359338 -0.04911635
000370 e3 47 c7 bd 02 24 08 3e 3e b0 88 bd e0 bb 13 3e
       -0.09730508 0.13294986 -0.066742405 0.14427137
000380 d0 94 2c bc c6 2b f3 bd c5 38 be bd cc 0c cf bd
       -0.010533527 -0.118735835 -0.09288172 -0.10109863
000390 c0 f9 2d bc 92 5c c2 bd 06 6b ad bd f4 2c 8c 3d
       -0.010618627 -0.09490313 -0.08467679 0.06844512
0003a0 c0 27 5e 3d 04 1f ea 3d bc 05 f5 3d 59 f8 09 be
       0.054237127 0.11431697 0.11963984 -0.13473643
0003b0 1c 7a 96 3d b4 38 d0 3d 10 3c 1c 3c dc f9 da bd
       0.07347509 0.10167065 0.009535804 -0.10692188
0003c0 57 a1 17 3d 39 64 8a bd 56 65 7e bd 00 4f 9f 3a
       0.0370191 -0.06757397 -0.06210836 0.0012154281
0003d0 f0 c2 30 3c 2c 03 f9 bd 20 e9 e0 3d 68 7a 8b 3c
       0.010788664 -0.12158808 0.10981965 0.017026141
0003e0 2b 09 b8 bd 7e e5 c5 3c c0 38 57 bc a0 df 27 3d
       -0.08986124 0.024157282 -0.013136089 0.04098475
0003f0 a8 ba 11 3e 48 b8 dd 3d ce 1d 2d bd e7 f5 39 3d
       0.1423136 0.108261645 -0.042264752 0.045400526

linear3.bias f4 [128]
000000 54 f9 d3 bc 1c b2 af 3b 3e e8 ce bd 1b 08 e0 3b
       -0.025875725 0.0053618085 -0.101028904 0.0068369037
000010 2c 74 93 bd 0f a8 75 3d 42 c7 2f bd 5d d5 2d bd
       -0.071998924 0.059974726 -0.042914636 -0.042439807
000020 9f 6b 9f bd 79 d9 ed 3c 69 98 ec 3d d7 83 b8 3d
       -0.07784199 0.029034363 0.115525074 0.090095215
000030 ae 16 a4 bd 90 a0 7f bc 79 bb d6 bd 15 39 ef 3d
       -0.08012138 -0.015602246 -0.10484976 0.116808094
000040 fe d8 d7 bd 5b ae d2 bd 2c a6 ca bc 82 d8 e1 3d
       -0.10539435 -0.10287162 -0.02473744 0.11027624
000050 80 58 b0 3d 08 c5 ac bd 5b 95 35 3e 2b d8 fd 3b
       0.0861063 -0.08436018 0.17732756 0.0077467165
000060 5a 42 cd 3b e2 46 5f 3c 76 6f 06 be 63 b4 c7 3d
       0.0062640132 0.01362774 -0.13128456 0.09751203
000070 44 bf 51 3d 4a ae e3 bd a8 03 0b be 88 ce f6 bc
       0.051207796 -0.111172274 -0.13575613 -0.030127779
000080 61 2e 2f 3e 1e ce 9a bd 6d de 1f 3e bc cc 6b 3c
       0.17107536 -0.07558845 0.15612192 0.014392074
000090 ac c5 f4 bd cf ec eb bd 0e d4 ab bd 90 1b ea bc
       -0.119517654 -0.11519777 -0.083900556 -0.028577596
0000a0 34 a8 ae 3d 77 8f 8c 3d 10 aa cd 3c db 25 0f be
       0.08528176 0.06863301 0.025105506 -0.13979284
0000b0 39 1d f5 3c 6f 1e 6f bd d4 5e b0 bd 7a 00 3e bd
       0.029921161 -0.058378633 -0.08611837 -0.046387173
0000c0 d2 d2 c8 bd d1 5b 5d bd 0c 0f 14 be ef 49 c5 bd
       -0.09805836 -0.05404264 -0.14458865 -0.09633242
0000d0 44 24 be 3d 6d e0 d3 3d 99 a2 fd 3d d9 b1 1b 3e
       0.09284261 0.1034554 0.12384529 0.15204562
0000e0 d1 32 ae 3d 83 2e c0 3d 3b 1e fc bd 8d ef 04 be
       0.08505786 0.093838714 -0.123104535 -0.12982006
0000f0 82 cd 40 bd 30 1e 93 3d 0d 6e b3 3d 1b 23 07 3d
       -0.047070988 0.07183492 0.08761225 0.032992464
000100 59 20 0f 3c 9e 4b 20 bd 92 e1 ce 3d a3 69 d1 3d
       0.00873574 -0.039134614 0.10101618 0.10225227
000110 f2 c3 e5 bb 5d c0 6f bd b1 3c a9 3d da df 0b 3e
       -0.007011884 -0.05853306 0.08263529 0.13659611
000120 22 03 a6 bd 58 9a 86 3d 44 68 c1 bd 11 7f 83 bc
       -0.08106066 0.065724075 -0.09443715 -0.0160518
000130 d8 9b e9 3d 10 1e 36 3d ef 82 d2 3d e0 3b 23 3c
       0.11406678 0.044462264 0.1027888 0.009963006
000140 d0 d7 0e be 71 b7 b7 3d fe d8 bf 3d b2 89 df 3d
       -0.13949513 0.089705355 0.0936756 0.10914935
000150 14 75 b8 3d f3 c8 0b be f6 80 e1 3d 3a a2 6b 3b
       0.09006706 -0.13650875 0.110109255 0.003595485
000160 2e 92 5f bd 45 b5 0b 3d 6d 22 7a 3a 31 b5 f6 bd
       -0.054582767 0.03410842 0.0009541873 -0.12046278
000170 a5 16 a5 bd 3c e7 b3 3d a0 93 90 bd 8f c1 fd bc
       -0.0806096 0.08784339 -0.07059407 -0.030976085
000180 25 88 ef 3b 89 47 cc 3d 12 95 e3 3c 2d cf 00 3e
       0.007309931 0.09974582 0.027781043 0.12579031
000190 48 c4 6c bd f0 1e 03 3e 58 75 e4 bd 42 bb 74 bd
       -0.057804376 0.1280477 -0.11155194 -0.059748895
0001a0 22 9b 35 bd 6f 29 f0 3d 3e 31 09 be 88 63 33 bc
       -0.0443374 0.11726653 -0.1339769 -0.010949023
0001b0 11 f5 e0 3c cc 4e 24 bd 2a 58 1b 3e 05 07 f3 bd
       0.027460607 -0.04011421 0.1517035 -0.11866573
0001c0 87 fa c1 bd 90 99 30 3d f3 e1 52 bd a4 60 ef bd
       -0.094716124 0.0431152 -0.051485013 -0.116883546
0001d0 3c 75 cb 3c ac 31 f6 bc 50 98 de ba 2a 18 8e 3d
       0.024836175 -0.030052982 -0.0016982649 0.06938203
0001e0 c4 e8 ad 3d 50 f6 bd 3c a4 e3 24 3d fc 3c d8 3d
       0.08491662 0.02318874 0.040256158 0.10558507
0001f0 4b ca 4d bd ab d6 c0 bd e3 2e 90 3d e4 dc 89 3d
       -0.05024175 -0.09415945 0.07040193 0.06731585

linear4.weight f4 [64, 128]
000000 f4 0b 05 bd 11 01 0a bd 59 03 a1 bd 8c bd d8 3c
       -0.032482103 -0.033692423 -0.07861967 0.02645757
000010 40 ba 05 3b 44 66 d2 bc ac 9d f7 bc 86 6f 3a 3d
       0.0020405203 -0.02568353 -0.030226551 0.045516513
000020 e3 a1 52 bd e0 47 59 bb ee be 4e bd 30 c0 76 3c
       -0.05142392 -0.0033154413 -0.050475053 0.0150604695
000030 2a df 6b bd 13 dd 9a bd 15 51 96 3d 85 d2 b3 bd
       -0.057585873 -0.07561698 0.07339684 -0.08780388
000040 32 57 27 3d a3 01 87 3d 78 77 0b bc a9 ec 35 bd
       0.04085464 0.06592109 -0.00851237 -0.04441515
000050 70 fc 0b 3c 04 2c 9b bc 56 aa 60 3d ea 12 38 3d
       0.0085440725 -0.018941887 0.054849945 0.044939913
000060 a8 2b 39 3c c8 c8 6f bc 46 0d 9c bd 70 6b cd 3c
       0.011301912 -0.014635272 -0.07619719 0.025075644
000070 4e 5b 2e 3d fa 94 46 3d ea cf 50 bd c2 ae 7f 3d
       0.042567544 0.04848192 -0.050979532 0.06242252
000080 86 a0 99 bd 70 0d 71 bc c4 e3 b2 bd 1f c6 6e bd
       -0.075013205 -0.014712676 -0.08734849 -0.05829441
000090 5e bb 6d 3d b5 5f a6 3d 0f 31 84 3d 03 9d 3f bd
       0.058040015 0.081237234 0.0645467 -0.046780597
0000a0 a9 db ae 3d 54 16 c8 bc e2 57 3a 3d b0 e5 90 bc
       0.085379906 -0.02442471 0.045493968 -0.017687649
0000b0 54 26 ba bc cc 2a ae bc 60 e3 ba 3b 66 0e 34 3d
       -0.022723354 -0.021260642 0.0057033747 0.043959044
0000c0 de ed 2f 3d 5c 4f de 3c 0c 41 f4 3c c3 9d 8c 3d
       0.042951457 0.02713745 0.029816173 0.06866028
0000d0 da 76 0b 3d 55 93 9b 3d 49 7b a7 bd b8 12 6b bc
       0.034048893 0.07596461 -0.08177812 -0.014347725
0000e0 09 2c 81 bd b8 ab 97 3c 36 64 47 3d 8e 7c 79 3d
       -0.06307227 0.018514499 0.048679553 0.0609098
0000f0 39 72 9b bd 4d a4 51 bd e6 10 51 bd 40 b1 e1 ba
       -0.075901456 -0.05118208 -0.051041506 -0.0017218962
000100 48 0b 13 bc 70 cb 39 3c 90 47 91 bc e0 23 6b bc
       -0.008974858 0.011340007 -0.017734319 -0.014351815
000110 e8 c9 4f bd 50 53 9f 3b 94 5b f6 3c de ac 4f 3d
       -0.050729662 0.0048622265 0.030072965 0.05070197
000120 38 9e b4 bc 53 05 9f 3d 32 ff 4f bd c0 e6 5d bd
       -0.0220481 0.077646874 -0.050780483 -0.05417514
000130 e2 2a a9 bd 51 14 8d 3d 10 a9 94 bd 26 94 5d bd
       -0.08260132 0.06888641 -0.072588086 -0.054096363
000140 d3 07 26 bd ef a8 81 3d ff b7 82 3d 2b fc 2b bd
       -0.040534806 0.0633105 0.06382751 -0.041988533
000150 40 f9 1a bb dd 69 98 3d c0 4b a7 ba 88 9b b3 3c
       -0.00236471 0.07442067 -0.0012763664 0.021924749
000160 a1 cc 20 bd 96 f7 98 bd a4 11 84 3c d0 41 93 bd
       -0.03925765 -0.07469098 0.016121693 -0.07190287
000170 c7 4a b1 3d 1a a2 6e bd d2 b1 22 3d 38 75 68 3c
       0.08656841 -0.05826006 0.039720364 0.014188103
000180 1a 35 6c 3d a0 04 fa 3c b5 0a 85 3d 23 66 1b bd
       0.05766783 0.030519783 0.06496183 -0.037939202
000190 10 d1 7b 3c 60 97 e4 bb f4 d8 84 bd 88 f8 51 3c
       0.015369669 -0.006976053 -0.06486693 0.012815602
0001a0 78 80 ae bd fd 77 2c bd 7c 8c ac bd 00 3d 02 3c
       -0.08520597 -0.042106617 -0.08425233 0.007949114
0001b0 30 77 bb bc 8d 24 86 3d 39 10 af 3d 96 9e 3d 3d
       -0.022883981 0.0654994 0.08548016 0.046293817
0001c0 e3 4c b0 bd 09 bc 92 bd bf cd ae 3d d8 0b 8f bc
       -0.08608415 -0.07164771 0.08535337 -0.017461702
0001d0 8c e5 af bd 5a fd 40 3d 20 82 9e bc cb 6d 94 3d
       -0.085887045 0.047116615 -0.019349158 0.07247504
0001e0 41 da a0 3d c0 62 1f 3b a0 21 7b bb c3 29 9e bd
       0.07854129 0.0024320334 -0.0038319603 -0.07722809
0001f0 e8 5c d0 3c 00 a6 8a 3c 57 7f a6 bd 04 04 84 bc
       0.025434926 0.016924858 -0.08129757 -0.016115196
000200 30 be 1a bc 24 1d b3 bd 84 3e f8 3c 8f fb 62 bd
       -0.009444758 -0.087457925 0.030303247 -0.055415686
000210 00 6c 61 bd 83 8a 8f 3d aa 7e 74 3d a0 d4 45 bb
       -0.055034637 0.07008841 0.05969111 -0.0030186549
000220 94 5c d5 3c 9e 63 6f bd 80 d9 0e bc dc a3 96 bd
       0.026045121 -0.05844461 -0.008718848 -0.073554724
000230 6b 54 af 3d 06 0c 18 3d b7 d6 81 3d 58 e7 c7 3c
       0.08561023 0.03712084 0.06339782 0.024402305
000240 14 23 8c 3c d0 40 89 bb 80 bd 14 3b 6d 2e 9e bd
       0.01710657 -0.0041886345 0.0022695959 -0.07723699
000250 c6 10 6c 3d b2 3a 31 3d 87 10 84 3d 40 5a 88 bd
       0.057633184 0.043268867 0.06448465 -0.06657839
000260 30 2e 6c 3c a4 cb ed bc a0 df e7 bc 94 cb 0b 3d
       0.014415309 -0.029027767 -0.028304875 0.034129694
000270 28 9b e5 bc 88 62 37 bc f1 6d 9c bd 96 10 19 bd
       -0.028028086 -0.011192925 -0.07638157 -0.037369333
000280 be c9 37 3d b0 8a c4 3b dc dd 0c bd 94 1c a0 bd
       0.04487013 0.005997978 -0.03439127 -0.07817951
000290 c0 63 e4 ba 60 79 b6 3c 90 2f 5a bc 7e 7a 36 3d
       -0.0017424747 0.022274673 -0.013317004 0.04455041
0002a0 c8 1c 0e 3c ae 80 78 3d e0 6c 5b 3b 25 00 a0 bd
       0.008673854 0.060669594 0.0033481643 -0.078125276
0002b0 8a 9a 0d 3d 46 d4 69 3d 6d 0b a6 bd b8 a8 a6 3c
       0.034571208 0.057087205 -0.08107648 0.020344123
0002c0 10 bf c3 bb e4 a1 29 bd 49 0e 97 3d 06 79 40 bd
       -0.005973704 -0.041414157 0.073757716 -0.046990417
0002d0 18 8b c4 3c 25 72 93 3d 70 4c cd bc 90 77 cc bc
       0.023992106 0.07199506 -0.025060862 -0.024959356
0002e0 a9 b0 86 3d 2e 1b 6f 3d c0 36 a6 bb d0 bc 85 bc
       0.06576664 0.05837553 -0.0050724447 -0.016325384
0002f0 83 87 26 bd f0 32 83 bd 82 24 73 3d 30 a7 5c 3c
       -0.040656578 -0.064062 0.05936099 0.013467595
000300 00 b0 64 3b 7f ed 2f bd 07 0b 74 bd 6a 91 5d 3d
       0.0034894943 -0.042951103 -0.05958083 0.054093756
000310 da 9a 4f 3d d8 be f5 bc d7 66 a8 bd 1c 79 a9 3c
       0.050684787 -0.029998228 -0.0822274 0.020687632
000320 89 82 a8 3d 70 0e b6 3b f2 03 45 3d 79 de ae 3d
       0.082280226 0.0055559203 0.048099466 0.08538527
000330 d2 25 61 bd d2 86 03 3d 80 79 09 3a 91 66 98 bd
       -0.05496771 0.032110997 0.000524424 -0.07441438
000340 87 09 54 bd c2 b0 34 bd 76 0a a8 bd 6a e7 6a 3d
       -0.0517669 -0.044113882 -0.0820512 0.0573496
000350 28 05 78 3c 80 69 cd 3b eb b6 a0 3d 1a b7 99 bd
       0.015137948 0.00626868 0.07847389 -0.07505627
000360 09 bc 00 bd 98 c6 b0 bd 27 58 b0 3d 5c 26 f9 bc
       -0.031429324 -0.08631629 0.08610564 -0.030413799
000370 20 a5 43 bb 14 3d d2 bc f0 9f c9 bc 2d c2 83 3d
       -0.002985306 -0.02566389 -0.024612397 0.064335205
000380 2a 6f 5d 3d 00 d6 21 39 06 98 52 3d 90 81 92 bc
       0.054061092 0.00015433878 0.051414512 -0.017884046
000390 50 c8 fb 3c 9e 44 20 3d ec 3b a2 bd af 50 95 3d
       0.030735165 0.03912794 -0.079215854 0.0729078
0003a0 81 4a 9f 3d fb bd 98 3d b0 8d 2b 3c 68 54 c2 bc
       0.07777882 0.07458111 0.010470793 -0.023721889
0003b0 4d 4a 8f bd c0 cd 93 bb 80 c6 27 bb 0c fc 83 bd
       -0.069965936 -0.0045106113 -0.0025600493 -0.064445585
0003c0 40 26 19 bc 70 55 6a bd dc 9b b3 bd 80 5c 6e 3c
       -0.009347498 -0.057210386 -0.08769962 0.014548421
0003d0 e0 b8 95 bd 02 6c 6c 3d 53 c2 80 bd 70 19 b4 3c
       -0.07310653 0.05772019 -0.062870644 0.021984786
0003e0 bc 2e ae bd 4e f2 68 3d 58 a7 29 bc 8f 71 89 3d
       -0.085050076 0.056871705 -0.010354839 0.06711113
0003f0 ba df 41 3d 3e f2 79 3d cc 95 a4 bd c6 cd 03 3d
       0.047332503 0.061022036 -0.08036384 0.032178663

linear4.bias f4 [64]
000000 64 53 92 bd 93 3c 64 bd 7d 6f 00 3d 46 ef 94 bd
       -0.07144812 -0.05572183 0.031356324 -0.072722
000010 7b b7 85 3d 5d 77 99 bc 37 60 54 3d 57 07 40 bd
       0.06529137 -0.018733675 0.05184957 -0.046882
000020 c0 27 70 3d 82 31 11 bd e7 87 25 39 f6 a8 9a bd
       0.05863166 -0.035447605 0.00015786254 -0.07551758
000030 e1 50 43 bd 6c c4 e0 3c 19 54 34 3c eb 01 8b bd
       -0.047684554 0.027437411 0.011006379 -0.06787475
000040 5c c5 cd 3d 6f f6 a6 bb 57 0e b1 bd 20 6c 0d bd
       0.10047409 -0.005095295 -0.08645313 -0.034526944
000050 68 a4 80 bd cc f4 cf 3d 86 36 9c 3d 0e 12 69 bd
       -0.06281358 0.10154113 0.07627587 -0.056901984
000060 9d 9f b4 bd b9 cd 98 bd 68 b8 0f bc 71 40 09 3d
       -0.08819506 -0.074611135 -0.008771993 0.03350872
000070 a9 34 b5 bc 83 79 09 3e 15 fe 04 3b 4b eb 29 bc
       -0.022119837 0.1342526 0.0020293046 -0.01037104
000080 ce dc 9e 3d a9 58 2c bd 32 65 67 3c 45 ae 0c bc
       0.07756959 -0.04207674 0.014123248 -0.008586471
000090 d2 ea ee bb 66 7d c0 3c 3b 1d 69 bd c0 d7 02 bc
       -0.0072911764 0.023497295 -0.056912642 -0.007986009
0000a0 05 98 b2 bc 8e 99 de 3d 06 7c 58 bd 3f 10 a0 bd
       -0.021801004 0.10869132 -0.052852653 -0.07815599
0000b0 46 31 0d 3d 63 21 22 bd 70 fa f3 3c 3a ee 8f bd
       0.03447082 -0.03958262 0.029782504 -0.0702786
0000c0 ae 6c da bb 7f 8f ae bd f4 3e 05 3d 90 fa b4 bd
       -0.0066657877 -0.085234635 0.03253074 -0.088368535
0000d0 13 91 7d bd e6 79 ca 3d 68 69 28 3c ed 54 8c 3d
       -0.06190593 0.098865315 0.010279037 0.06852136
0000e0 e6 e9 97 bd 36 d2 de 3c d0 c0 b4 bd c8 41 f8 3d
       -0.074176595 0.027199846 -0.088258386 0.12121922
0000f0 5f 87 21 bd f4 7c 12 3e ca b3 ad bd 28 20 fb 3d
       -0.03943574 0.14305478 -0.08481558 0.12261993

linear5.weight f4 [3, 64]
000000 18 5e e9 bc e0 8d 63 bd 80 02 a5 3d f5 4c c3 3d
       -0.02848725 -0.055555224 0.080571175 0.09536163
000010 29 aa 2d 3c 90 89 3e 3c 02 1c 9a bd 32 6d b5 bd
       0.010599651 0.011629477 -0.07524873 -0.08858718
000020 39 4e 66 3c 2c 33 fb 3d 89 e2 bb bd 88 f9 59 bd
       0.014056736 0.1226562 -0.091740675 -0.053216487
000030 90 62 0b bd d0 58 63 bc 1d 0d 90 3d af 90 d9 bd
       -0.034029543 -0.013876155 0.07033751 -0.10623299
000040 02 d7 03 3c d8 54 37 3d 00 8c 36 bb b0 a3 27 be
       0.008046867 0.044758648 -0.0027854443 -0.16371036
000050 60 85 c7 bc 49 c9 26 bd dd ab a0 3b 48 6d 82 bd
       -0.02435559 -0.040719304 0.0049033 -0.063685
000060 ca b5 aa 3d ee 27 ba 3d b2 da d1 3d 28 10 7e bd
       0.08335455 0.09089647 0.10246791 -0.062027127
000070 ca 7f fe bd e0 20 b1 ba 8e ac a4 3d 67 39 f6 3d
       -0.124267176 -0.0013513826 0.08040725 0.120226674
000080 c4 8f 4f bd 40 c9 d9 bb 28 d6 03 bd d2 c1 2f 3d
       -0.050674215 -0.0066463053 -0.032186657 0.04290945
000090 a4 5b 93 bd 50 93 a5 bc 80 06 b7 3a 6c ba 1b bd
       -0.071952134 -0.020211846 0.0013963729 -0.038019583
0000a0 80 79 1a 3d a6 3d 22 bd b3 30 04 3d 18 85 2f bd
       0.037713528 -0.039609574 0.032273006 -0.042851537
0000b0 dc 06 3e bd 04 34 d1 3d b3 bf 95 3d 64 6d e6 bd
       -0.04639326 0.10214999 0.07311954 -0.11251333
0000c0 58 76 c5 bd 70 e4 7a 3c 0a 59 51 bc 70 9c 6b 3c
       -0.09641713 0.015313253 -0.012777576 0.014380559
0000d0 90 ce a0 bc 1c 2d 33 3c 36 a1 dd 3c a3 89 ec bd
       -0.019629747 0.010936048 0.02705441 -0.115496896
0000e0 f6 db da 3d 94 80 9c 3d e6 0b bf bd 0c 20 53 bd
       0.106864855 0.07641712 -0.09328441 -0.051544234
0000f0 52 29 fc bd 29 2d 56 bd 78 ee bb 3d 63 4f 99 3c
       -0.12312569 -0.05228916 0.09176344 0.018714612
000100 c4 4f b6 3d 40 10 e6 bd 7a 22 dd bd a4 02 fc 3d
       0.08901933 -0.11233568 -0.107975915 0.12305191
000110 e5 56 80 bd 9f 62 39 bd 56 5f 0f be f0 2e 8a 3d
       -0.06266574 -0.045260068 -0.14001212 0.06747234
000120 28 6c 17 3d d4 c8 dd bd b5 9a 53 3d 3c 7e e6 3d
       0.03696838 -0.108293205 0.051661212 0.11254546
000130 08 7d fd 3d 00 a1 58 3b c4 c0 9d bd d9 05 ca 3d
       0.123773634 0.0033054948 -0.07702783 0.098643966
000140 10 2a 27 bd 64 9c 09 bd 00 eb 83 3a bf 8b 14 bc
       -0.0408116 -0.03359641 0.0010064542 -0.009066521
000150 40 20 e5 3b 35 17 4a 3d 1a 9d df bd b0 d4 ac bd
       0.00699237 0.04933854 -0.109186366 -0.084390044
000160 f4 ff f0 bd 00 95 71 3c a6 04 87 bd 1b 3d cc bd
       -0.11767569 0.014744997 -0.065926835 -0.099725924
000170 2a 0a a0 3d d4 03 03 be 22 81 60 3d 5d 91 c1 3d
       0.07814439 -0.12794429 0.05481065 0.09451554
000180 7a f4 85 3d 8d 2f 99 bd 32 a4 db bd e8 f8 9f bd
       0.06540771 -0.07479773 -0.10724677 -0.07811147
000190 4e de ae bd f6 ec e9 bd 5e 1b a7 bd 9c 4f c2 bd
       -0.08538495 -0.1142215 -0.08159517 -0.094878405
0001a0 15 af c1 bb 0e 40 a2 bd 4a 03 01 be b0 20 5a 3c
       -0.005910764 -0.07922374 -0.12598911 0.013313457
0001b0 c7 99 a4 3c d5 74 fc 3c 11 e7 a0 3c 82 11 ab 3d
       0.020092858 0.030817429 0.019641431 0.08352949
0001c0 cb 50 8d 3c 04 1c b1 3d 5b 64 07 3b a8 ac d7 3c
       0.01725044 0.08647922 0.0020659182 0.026327446
0001d0 44 63 e0 3d 0c 55 2e bd 54 38 85 3d f4 b0 36 3d
       0.109564334 -0.042561576 0.06504884 0.04460235
0001e0 80 27 f5 bc f6 ac e9 bd 64 b4 78 3d 98 4b 45 bd
       -0.029926062 -0.11409943 0.06071891 -0.048167795
0001f0 3c 81 dc 3d 66 46 22 bc bc b0 4b bd 2b 15 a3 bd
       0.10766837 -0.00990448 -0.049729094 -0.07963022
000200 a2 83 aa bd 5e 14 a7 3d 42 f9 19 bd 80 ca 5c 3d
       -0.08325888 0.081581816 -0.037591226 0.053904057
000210 52 d0 02 bd 32 a2 ab 3a 35 fa f4 3b f1 38 b2 3d
       -0.03193695 0.0013094603 0.007476116 0.08702267
000220 d9 29 a7 bd 5a aa e0 bd c5 88 49 3c 24 bc d1 bd
       -0.08162279 -0.10969992 0.012300675 -0.10240963
000230 dc 06 c3 bd a5 63 da 3c 72 c8 de bc 87 e7 9b bd
       -0.09522793 0.026658842 -0.02719519 -0.0761252
000240 eb d8 2a bd 5a 3b fa 3c 50 0b c1 3c ca ff 1f 3c
       -0.041710775 0.03054588 0.023564965 0.009765575
000250 06 57 fb bd 2f 1a 71 bd 05 a9 6b bd 28 6f 86 bd
       -0.12272458 -0.05886286 -0.057534236 -0.0656417
000260 e8 79 30 bd 90 f4 49 3d 94 d9 93 3d 78 45 1d 3d
       -0.04308501 0.0493055 0.07219234 0.03839633
000270 97 80 99 3c 92 d1 1d bd 7b 06 99 3d fe 1e 92 bd
       0.018738074 -0.03852994 0.07471939 -0.071348175
000280 25 31 b3 bd 3c 44 02 bd 65 b2 ca 3d 7f 23 86 3d
       -0.08749608 -0.031803355 0.09897307 0.06549739
000290 54 e6 db bd 52 a7 17 bd ae 7e ce 3d 28 bb 9b 3d
       -0.10737291 -0.037024803 0.10082756 0.076040566
0002a0 22 c5 cc 3b 00 99 e0 bd ff 6b f7 3c 38 3b 6e bd
       0.006249086 -0.109666824 0.030202864 -0.058161944
0002b0 1e 9d e2 bd 52 9e f5 3d f9 b7 ca 3d 2d d2 cc 3b
       -0.11065124 0.11993088 0.09898371 0.006250641
0002c0 cf 1d dd bc 48 66 82 bc eb 36 68 bd ea 7f fa 3d
       -0.026991753 -0.015917912 -0.056693 0.12231429
0002d0 71 c0 8a 3d ac e5 c2 bd a0 fc 58 bd d9 bd f7 bd
       0.067749865 -0.09516463 -0.052975297 -0.120967574
0002e0 74 e0 4f bd e6 0b 4b 3d 90 be 9e bd 83 a8 11 be
       -0.050751165 0.049571894 -0.07751191 -0.14224438
0002f0 40 76 1c 3d b3 7c 15 be f0 03 f6 3c a8 d3 fe bd
       0.03819871 -0.1459835 0.030031174 -0.12442714

linear5.bias f4 [3]
000000 53 3d c3 bd 30 96 25 be db 9e 09 bd
       -0.09533181 -0.16170573 -0.033598762
