model/model.pth (torch, 237959 bytes, 10 tensors)

linear1.weight f4 [64, 12]
000000 b8 87 06 be 28 d4 23 3e 32 41 ec bd 70 7f dc bc
       -0.1313771 0.159989 -0.115358725 -0.026916236
000010 af 97 34 3d 40 ca 27 3d 7d f2 5f bd 40 fb fd bc
       0.04408997 0.040964365 -0.054674614 -0.031003594
000020 fc b5 b2 bc 60 f8 4b 3c 83 72 08 bd ed 4c bd 3d
       -0.021815293 0.012449354 -0.033312332 0.09243188
000030 4c dc a7 3d 67 0d e0 bd 4e 5e 13 3e 02 05 5e be
       0.08196315 -0.10940056 0.14391443 -0.21681598
000040 40 f2 06 be e1 b0 60 3e ca 63 86 be d0 8f 85 bd
       -0.13178349 0.21942474 -0.26248008 -0.06521571
000050 dd fb b1 3d 2b 0b 83 be 2e 29 23 bd a3 09 cd 3e
       0.08690617 -0.25594458 -0.039834194 0.40046415
000060 d8 4c c5 bd fe 06 4b 3e af 35 57 3e 5a b2 d3 3b
       -0.096337974 0.19826886 0.21016572 0.00646047
000070 55 40 03 3e 0b fb 41 3e 30 1a 6f be 0b 7c 23 be
       0.1281751 0.18943422 -0.23349833 -0.15965287
000080 9b 2d 78 3d 8a f0 7d be 09 17 a0 bd c4 8c 23 bc
       0.060590368 -0.2479879 -0.078168936 -0.009982292
000090 70 d4 5e bc 56 ed a7 3c 4b 19 89 3e d0 7d 63 3d
       -0.013600454 0.020498913 0.2677711 0.055539906
0000a0 2a 2c 34 3e 2f 9c 31 3e 4e 24 df 39 12 5e b8 bd
       0.17594972 0.17344736 0.00042560924 -0.090023175
0000b0 c1 d9 f4 3d d5 e7 0e be 8e c7 f2 bd e0 91 e9 bd
       0.11955596 -0.13955624 -0.11854468 -0.114047766
0000c0 4b 9c 0f 3e 41 cf ac 3d 56 0f 32 be 1b a1 5a 3c
       0.14024465 0.08437968 -0.17388663 0.013344075
0000d0 1d d7 ce bc c8 49 80 3c e7 a9 62 3d 5d 2d 38 be
       -0.025249058 0.015660182 0.055337813 -0.17986055
0000e0 88 23 92 be e2 29 d1 bd 52 a6 ae be 2c 93 b7 bd
       -0.28542733 -0.10213067 -0.34111267 -0.08963618
0000f0 87 0c cf 3d 55 90 1f be 44 5e 64 3e 3e 4b 1e 3e
       0.10109811 -0.15582402 0.22301584 0.1545839
000100 fc 71 fd bd 69 79 d5 bd 79 56 80 be 0a b7 d6 bd
       -0.123752564 -0.10423548 -0.25065973 -0.10484131
000110 54 b0 5b 3e ab 1e f9 bc 95 b3 87 3d 5e 46 57 be
       0.21453983 -0.030410131 0.066260494 -0.21022937
000120 0a 03 03 be fd 50 61 be 7a be 76 3d a5 74 a3 bd
       -0.12794128 -0.22003551 0.060240246 -0.079812326
000130 e5 3c 25 be c8 12 90 be 4c 8e c8 3d 81 3d 86 be
       -0.1613651 -0.2813933 0.09792766 -0.262188
000140 9d a7 87 3e 9c 6c ed 3c 02 d4 21 3e 85 cf 82 3e
       0.26495066 0.028982453 0.15803531 0.2554895
000150 fb a3 ea 3d 40 5f ad 3d d6 c4 8f bd 0a 6f 4c 3e
       0.11457058 0.08465433 -0.07019965 0.19964233
000160 58 90 62 be 97 2c 3b be bd 54 b1 3d 7d 95 47 3e
       -0.22125375 -0.18278728 0.08658741 0.19490619
000170 61 cd 5e bc 0d 7f 28 be f8 0e 28 be ab f8 18 be
       -0.013598771 -0.16454716 -0.1641196 -0.1493861
000180 3a f0 90 bd 10 8e e5 bd 5a 0f 22 3e bc 7d 38 be
       -0.070770696 -0.11208737 0.15826169 -0.18016714
000190 59 7d 11 3e 00 7c 3a bc bc 83 fc 3d 8e 18 d3 bd
       0.14207973 -0.011382103 0.12329814 -0.10307418
0001a0 51 eb 40 be 1f 89 0b be 2e b9 f3 bd 80 c5 cf 3b
       -0.18839766 -0.13626526 -0.119005546 0.0063406825
0001b0 26 21 4f be 80 04 7a 3d 6e de 06 be 2a 06 02 3e
       -0.20227489 0.061039448 -0.13170788 0.12697664
0001c0 00 c6 42 ba 48 8a ec bd 59 de 1f be 68 9d 54 be
       -0.0007430017 -0.115498126 -0.15612163 -0.2076317
0001d0 02 e8 5d be c4 6d 6c 3e 52 f7 20 be 40 0f e6 bb
       -0.21670535 0.23088747 -0.15719345 -0.007020861
0001e0 a6 a5 86 3e 7f 16 64 3d e0 6d 87 3c 40 c3 5a be
       0.26298255 0.055685516 0.016531885 -0.21363544
0001f0 36 36 4b 3e 79 b7 21 be 7c 01 d7 be b5 4a 08 be
       0.19844899 -0.15792646 -0.4199332 -0.13309748
000200 56 c7 22 3e 03 d7 b1 be 9f d7 1b 3d 60 01 ca bd
       0.15896353 -0.34734353 0.03804743 -0.098635435
000210 7b d5 e6 bd 08 b7 88 3d 58 5f c2 bd 9c 6d 3b bd
       -0.11271187 0.066755354 -0.094908416 -0.04575883
000220 8e 20 35 be 66 18 11 3e b3 dd b5 3e b1 15 93 bd
       -0.176882 0.14169464 0.35520706 -0.07181872
000230 a2 46 7a bd 25 59 92 be c2 fb b3 3a 95 f6 9b 3e
       -0.061102517 -0.28583637 0.0013731646 0.30461565
000240 b1 37 f0 be 36 a9 6a be fc 77 df bd 32 93 70 bb
       -0.4691749 -0.22916111 -0.10911557 -0.003670883
000250 2d 2f 82 be a0 0e b1 bd fb 43 61 3e 0f 52 d6 3c
       -0.25426617 -0.086453676 0.21998589 0.026162175
000260 8f 65 85 be 5b fb d1 3d 3d 95 fa 3d 58 80 5e 39
       -0.26054046 0.102530204 0.12235496 0.00021219382
000270 12 39 cd 3e 06 59 e0 bd 58 94 d1 3d 19 b4 79 3e
       0.40082604 -0.1095448 0.102333724 0.24385108
000280 1e 8f 5f be 5e 1d bb 3d 1a 26 52 bd ec 24 35 be
       -0.21831939 0.09136461 -0.051305868 -0.17689866
000290 3f 81 69 bd ef da 04 be 4d 66 4b 3c 7d e0 af 3e
       -0.057008024 -0.12974142 0.012414527 0.34350958
0002a0 42 54 8f be 39 f0 b4 3e 92 e7 cb 3b 64 cf 1e 3e
       -0.2799397 0.35339525 0.0062226737 0.155088
0002b0 4e 81 db bd 10 1c 31 be c8 c2 38 bd 33 06 f3 bd
       -0.10718022 -0.17295861 -0.045107633 -0.11866417
0002c0 fc 25 6a 3e 58 66 bc 3e e2 92 20 3d 98 de 8f bd
       0.22866052 0.36796832 0.03920258 -0.07024878
0002d0 0c 80 a5 be c2 f9 53 be ac a3 2f bd 57 f6 1f 3e
       -0.32324255 -0.20700744 -0.0428807 0.15621315
0002e0 0f e1 01 be 83 24 a6 3c b1 4e 43 3e 4f f3 a8 be
       -0.1268351 0.020281082 0.19072987 -0.3299813
0002f0 ff ea 26 be 90 09 3f be 3f ea 9f 3d 56 25 5d 3e
       -0.16300581 -0.18655992 0.07808351 0.21596274
000300 86 99 3d 3e 67 d0 15 be eb dd 8c be 11 9b 16 3e
       0.18515596 -0.1463028 -0.2751306 0.1470759
000310 60 fd b7 3d b1 4f 96 3d 74 5a 93 bd 95 40 f0 3d
       0.08983874 0.07339419 -0.07194987 0.11731068
000320 d9 08 22 be 64 a9 88 be 75 9c ba bd 6a 33 67 be
       -0.15823688 -0.26691735 -0.09111873 -0.22578207
000330 d0 a3 5d 3d ec 9e 31 3e 60 e7 da 3c 3c fa c7 bd
       0.054111302 0.1734578 0.026721656 -0.09764525
000340 60 49 52 be d0 f8 23 3d 49 00 94 3d 87 d4 01 be
       -0.20535803 0.040032208 0.07226617 -0.12678729
000350 51 32 7c be be dc 43 3e a1 67 05 be c0 c7 4c 3c
       -0.24628569 0.19127175 -0.13027813 0.012498796
000360 78 50 30 3e 8d cd df 3d 5c 8c ad 3d c0 05 b7 bd
       0.17218196 0.109278776 0.08474037 -0.089366436
000370 12 34 9a 3c 85 40 1b 3e 6e c0 00 be 6c 66 93 be
       0.018823657 0.15161331 -0.12573406 -0.2878908
000380 53 7c 6d 3e 5b 99 82 be e6 d9 06 3e 94 56 37 3e
       0.23191957 -0.25507626 0.13169059 0.1790412
000390 65 d1 8b 3e 75 22 15 be b0 92 7a 3e 46 1f 8c be
       0.27308193 -0.14563926 0.2447002 -0.2736761
0003a0 9e 43 f3 3d 7d 8d 4e be eb 08 a2 be c6 06 43 bd
       0.11878131 -0.20171161 -0.3164743 -0.04761388
0003b0 49 28 60 bc 02 8e 2f be 28 bf 5c 3e 59 a6 ea 3d
       -0.01368148 -0.17144015 0.21557295 0.114575095
0003c0 86 1e ab 3e 02 08 88 3e 0e ca 32 be df 0f 1b 3e
       0.33421725 0.2656861 -0.1745989 0.15142773
0003d0 14 aa ef bd d7 66 27 3c bb ed 96 bd 8e 1d b0 3c
       -0.11702362 0.01021739 -0.07369562 0.021498468
0003e0 0b 65 94 3d cf b4 9c be c0 59 7f 3d 8c 05 aa 3e
       0.07245835 -0.30606696 0.06234145 0.33207357
0003f0 23 1f 10 be a5 e1 fb 3d b8 41 02 3d ba 72 e7 3d
       -0.14074378 0.12298898 0.031800956 0.11301179

linear1.bias f4 [64]
000000 3f 33 98 be ed 81 48 3e 2f 99 71 bc e2 cd 96 bd
       -0.29726598 0.19580813 -0.0147459945 -0.07363488
000010 c5 b9 20 3e 77 93 63 be fd 1a 09 be 7a f7 82 be
       0.15695865 -0.22224222 -0.13389201 -0.25579435
000020 42 69 4d be cf 39 34 be 8f 95 2b 3d 78 e7 b0 3e
       -0.20059684 -0.17600177 0.041890677 0.34551597
000030 06 47 3c 3e 6c 1b 0b 3c 34 00 8a 3c 76 b0 ae be
       0.18386468 0.008490425 0.0168458 -0.34119004
000040 9b 43 ac be 84 b9 6c be 13 c0 69 be 6e fa fe bd
       -0.3364533 -0.23117644 -0.22827177 -0.124501094
000050 3f 97 4d 3d ac 4a 4d be 76 b8 25 bc 1d 4a 88 be
       0.050193068 -0.20048016 -0.01011478 -0.26619044
000060 7b 37 cd 3d 47 0c b3 3c 8d f1 ac bd 6a 0c 8b be
       0.10020348 0.02185644 -0.0844451 -0.2715791
000070 3f 80 d8 3d 9f cd 01 be 0b b3 3e 3d 07 82 d5 bd
       0.10571336 -0.12676094 0.046557467 -0.104251914
000080 d7 56 a1 be 0e f7 87 be d4 b6 24 be 81 d3 7f be
       -0.31511566 -0.26555675 -0.16085368 -0.24983026
000090 8a 81 56 bd 54 78 d8 bd 02 3b 8d bc f7 48 a9 be
       -0.05236963 -0.10569826 -0.017240051 -0.3306348
0000a0 24 ef 96 be 2f 9a 43 be d8 fe 7b 3d e7 4f e4 3c
       -0.29479325 -0.19101785 0.061522335 0.027870132
0000b0 00 92 61 be 9b 84 2e 3d 95 f6 49 3e 4b a6 c6 be
       -0.22028351 0.04260693 0.1972297 -0.38798746
0000c0 1d 61 fd 3e 7b ed 77 3e 2b 34 bd 3d 8f ba 48 be
       0.49488154 0.24211685 0.09238466 -0.19602416
0000d0 fd 47 b2 be fa f3 d3 3d 9a 19 d4 bc 8d 66 17 bd
       -0.34820548 0.10349269 -0.025891114 -0.036963034
0000e0 eb dc 1e be cb 3c 8f be 23 18 e2 bd 1f ea 99 3c
       -0.15513961 -0.2797607 -0.1103976 0.018788395
0000f0 44 0f 8f be f4 c8 73 3e f2 68 ec 3d 29 34 e1 bd
       -0.27941334 0.23807126 0.11543454 -0.10996277

linear2.weight f4 [128, 64]
000000 d2 ff ac 3d f1 de 91 bd 72 22 ee bc 76 06 1d 3e
       0.08447231 -0.07122601 -0.02906916 0.15334496
000010 9b b2 8d 3d 5f 49 a6 3d 77 70 23 3e f4 fe 35 3d
       0.06918832 0.08119463 0.1596087 0.044432595
000020 50 d2 e5 3a 28 3d d1 bd 2d c1 11 3e cd 8b 62 be
       0.0017533991 -0.10216743 0.14233847 -0.22123642
000030 49 5e 12 3d 80 27 d9 bd 31 ae de 3d ff 22 03 be
       0.03573445 -0.10603237 0.10873068 -0.12806319
000040 a4 04 0e 3e dd 42 5a bd c9 16 4c bd b0 9b f2 bd
       0.13868958 -0.053286422 -0.049826417 -0.11846101
000050 65 d8 fb 3c 06 4b 09 3e 7e b4 ed 3c 88 34 fa bd
       0.030742833 0.13407525 0.02901673 -0.12217051
000060 8e 70 33 be 00 bf d1 bd 8f bf 29 be e8 9d 9c bc
       -0.17523405 -0.102415085 -0.1657698 -0.019118264
000070 28 02 23 bd 1b ff 02 3e c1 17 f6 3d 8c 4a 92 bc
       -0.03979698 0.12792628 0.120162494 -0.017857812
000080 31 40 74 bd a0 59 51 3d f7 8b f2 3d a3 2a 00 bd
       -0.05963153 0.051110864 0.118431024 -0.03129066
000090 9f 7d 2f be a1 1b a7 be 02 29 cf bc 92 da a3 3d
       -0.17137764 -0.32638267 -0.025288109 0.08000673
0000a0 72 2e 9f 3c 1c 4f ee bd 9a 2a 33 bd b2 c8 c0 b8
       0.019431327 -0.11636183 -0.0437418 -9.192656e-05
0000b0 82 a9 8f 3d 34 11 10 3d d3 ce 2b be 4e 6e 94 3d
       0.07014753 0.035172656 -0.16778116 0.072476014
0000c0 4d c8 da bd 6b fe 12 bd b4 19 eb 3c da f0 06 3c
       -0.106827356 -0.035887163 0.02869878 0.008236134
0000d0 c9 ae 6c 3d a4 52 fa 3d 22 0d a3 3c a8 d1 84 bd
       0.057783876 0.12222794 0.019903723 -0.06485301
0000e0 81 8a d8 bd 05 ef a8 3d 1d 16 f4 bd 5d da 26 be
       -0.105732925 0.08248714 -0.1191828 -0.16294236
0000f0 94 e9 a0 bd e2 f2 5f 3d e4 1e 22 bd 84 87 79 bd
       -0.078570515 0.05467499 -0.03958024 -0.060920253
000100 5e 78 b0 3c 76 92 72 3d 6e c1 89 3c c6 75 5a 3a
       0.02154177 0.059221707 0.016815867 0.00083335896
000110 5f 2c 1a be 73 99 0e bd 9c 5b 14 be 40 e8 80 bc
       -0.15055989 -0.03481431 -0.14488071 -0.015735745
000120 3c 0d fa 3d fa 21 c4 3d a5 fd 82 bd fd 4a 45 bd
       0.122095555 0.09576793 -0.06396035 -0.048167218
000130 f5 3c 58 bd 5e 3b c6 3d 21 50 b9 bc 40 7c 2e bd
       -0.05279251 0.09679292 -0.022621216 -0.042598963
000140 08 d3 48 3d c2 49 3d bb c5 46 11 3d 5d 5c 53 bc
       0.04902938 -0.0028883074 0.03546788 -0.012900439
000150 a2 22 53 bd 7a 84 93 bd b3 e5 90 bd 3a 28 a5 bd
       -0.0515467 -0.07203002 -0.07075062 -0.08064313
000160 24 39 88 bd 5f 2d 8b bc 00 0d 2f 3b 54 d9 62 bd
       -0.06651524 -0.016989408 0.002671063 -0.05538304
000170 4a 0e c8 3c c1 38 36 bd 43 eb 0b be 10 7f c9 bc
       0.024420876 -0.04448772 -0.13663964 -0.024596721
000180 df 35 18 3d 3c 7e 6d 3d d6 a0 c2 bd a7 b1 7a 3d
       0.03716075 0.057981715 -0.09503333 0.06120458
000190 d6 70 a9 bc 08 b7 a0 bd 18 07 95 3d 40 9a 58 3b
       -0.020683687 -0.078474104 0.07276744 0.0033050925
0001a0 b9 23 96 bd 11 52 81 bd 86 4d 45 bb 03 8e 63 bd
       -0.07331032 -0.06314481 -0.0030106022 -0.055555355
0001b0 93 a0 5f bd d9 aa 2e 3d 5d 0f 21 be ff 85 09 be
       -0.054596495 0.0426434 -0.15728517 -0.13430022
0001c0 3d d6 1f be 0e 55 b8 bd 55 52 c8 3c ee 64 b7 bd
       -0.15609069 -0.09000598 0.024453321 -0.08954798
0001d0 07 17 92 3c d1 68 c7 bd 43 2c 31 3d 71 44 7a 3d
       0.017833246 -0.09736789 0.043255102 0.061100427
0001e0 c7 b5 4f bd 04 b3 a7 3d 2a 8d c2 bd aa 1c f4 bd
       -0.050710466 0.081884414 -0.09499581 -0.1191953
0001f0 ff 67 31 3a 1e 10 5e 3d 71 b9 7d 3d 50 b2 6b 3c
       0.0006767511 0.05421459 0.06194443 0.014385775
000200 fa f7 88 bd 1b a3 05 bd 52 d7 f3 bd 95 6b 5b bd
       -0.06687923 -0.032626253 -0.119063035 -0.053569395
000210 7f 62 c3 bd cb ef 00 be 92 2f c2 3d 60 fe c6 3b
       -0.09540271 -0.12591474 0.094817296 0.0060728043
000220 d2 96 95 bd 94 6f 45 3d d1 1e 00 be 64 ef 49 bd
       -0.07304157 0.048202112 -0.12511756 -0.049300566
000230 73 77 12 be 9a 79 96 bd 4b 4e 1a be b0 21 1b bd
       -0.14303379 -0.073474124 -0.15068929 -0.037873924
000240 00 61 27 bc b4 27 f2 bd 70 c7 69 bc a5 10 f8 ba
       -0.010215998 -0.11823979 -0.014268741 -0.0018925859
000250 34 7a 79 3d ec e4 7a bd fe b7 f1 ba 3a 06 fa 3d
       0.060907558 -0.061253473 -0.0018441675 0.12208219
000260 b5 25 dc bd 19 48 ae bd a8 c3 c0 3c b8 8b dc 3c
       -0.107493795 -0.08509845 0.023530796 0.026922092
000270 78 8e 71 3c 80 49 56 3d 00 9a e6 3c 10 7c 3f 3d
       0.01474344 0.05231619 0.028149605 0.046749175
000280 50 f8 b2 3d ec d0 08 3d 3c 99 a9 bd d2 4b 2c 3d
       0.08738768 0.03340237 -0.0828118 0.042064495
000290 cd df 16 bb c6 f0 cf bd 82 75 b4 bd f8 57 90 bd
       -0.002302158 -0.10153346 -0.08811475 -0.07048029
0002a0 f4 0a 23 bd ac 51 4d bd 85 ac 26 bd 50 1d a0 bc
       -0.039805368 -0.050126716 -0.04069187 -0.019545227
0002b0 02 3d 9f 3d d3 ca 7a 3c d5 31 ef bc b4 09 36 bd
       0.07775308 0.015307146 -0.029198566 -0.044442847
0002c0 10 f8 b7 bd 63 d1 91 3c 42 7a 44 3c 61 7f b6 3d
       -0.08982861 0.017800039 0.011992039 0.08911014
0002d0 14 32 ec bd 21 ce 4c 3d e4 0c 39 3d 78 dc 34 3d
       -0.11532989 0.050001267 0.04517831 0.044155568
0002e0 27 1b 1a 3d 40 b2 11 3c 11 24 93 bc 0a 5a f2 3b
       0.03762355 0.008892596 -0.017961534 0.0073959874
0002f0 94 27 17 3d 7b 99 88 3d 30 a8 b8 bd 20 ef 41 3d
       0.03690298 0.06669899 -0.09016454 0.047347188
000300 1e 44 47 3d 7f 40 b7 3d 22 26 17 bd b9 b5 a7 bd
       0.048648946 0.089478485 -0.0369016 -0.08188958
000310 c2 ae df 3d cd 07 5e bd 85 ea 92 3c 6c 7c 01 bd
       0.10922004 -0.05420666 0.017934093 -0.0316128
000320 62 a8 a9 bd 00 4c cd 39 ba 8f 6e bd bf 41 7f bd
       -0.082840696 0.0003915727 -0.058242537 -0.06231856
000330 d2 0a 15 bc 20 ab 01 bc e2 16 35 bc 20 a3 a8 bb
       -0.009096818 -0.007914335 -0.011052819 -0.005146399
000340 f8 a8 d3 3d 14 24 ae bd 1d 96 03 be 80 6d 19 3d
       0.103349626 -0.08502975 -0.12850232 0.037457943
000350 3f 2b e2 bc cb 80 e2 bd ed 1e 5d 3d 30 67 c0 bc
       -0.027608512 -0.110597216 0.05398457 -0.023486704
000360 ff 56 de bc a2 6e 43 bc d0 3c 81 3d 9a 77 f1 bd
       -0.027141092 -0.011928232 0.06310427 -0.1179039
000370 11 64 23 3d 9a 68 97 3d c8 41 70 3d 77 d1 f5 bc
       0.039890353 0.07392998 0.058656484 -0.030007107
000380 a5 b5 4b bd 82 a9 a9 3d f6 33 92 bd 0c d3 a5 bc
       -0.049733777 0.08284284 -0.07138817 -0.020242237
000390 e6 b7 95 3d 6c de b9 bd 69 7a 18 bb 38 2b a5 bc
       0.073104665 -0.09075627 -0.0023266322 -0.02016221
0003a0 8c 73 ea 3d 4b 0f c8 bd 74 16 bd bc 8b a9 d6 3c
       0.1144782 -0.09768542 -0.023081996 0.026203891
0003b0 9c bc e4 bc 79 b2 8f 3d 56 59 45 bd ba 19 13 be
       -0.027921967 0.07016463 -0.0481809 -0.14365283
0003c0 9c 14 da bc b8 86 05 be 48 0f d2 bc 65 47 06 3b
       -0.026621155 -0.13039672 -0.025642052 0.0020489332
0003d0 58 27 cc 3c 8a 91 c7 bd dd e2 91 bc 0c cd 13 be
       0.024921104 -0.09744556 -0.017808372 -0.14433688
0003e0 f0 7f ac bc ca ab 89 bd f4 0b 8c bd 76 79 83 3d
       -0.0210571 -0.06722219 -0.068382174 0.06419651
0003f0 aa ea f6 bd 51 54 c9 bd 00 ab b5 bd fc c7 e7 3c
       -0.12056477 -0.09830535 -0.08870506 0.028293602

linear2.bias f4 [128]
000000 ab 25 60 bd 03 f9 75 3c 42 30 4f bd a3 ea da 3c
       -0.054723423 0.015012982 -0.05058313 0.026723212
000010 2a b2 c7 bd 89 37 53 3d 65 9f a9 bd de d7 ef 3d
       -0.09750779 0.051566634 -0.08282355 0.11711095
000020 af e7 06 be 2c 6a bf bd d0 8c 30 bc 2f 0e 22 be
       -0.13174318 -0.093464226 -0.01077576 -0.15825723
000030 5d 8f 13 be ae 3b 1b bc 94 59 03 be 85 ea 1f bc
       -0.14410158 -0.009474678 -0.1282714 -0.009760504
000040 bc 26 04 3d 00 d6 9c ba 1a 9d 1a be f9 59 88 3c
       0.032263502 -0.0011965632 -0.15098992 0.016644465
000050 78 7f 17 3e 62 98 e2 bd 8f e7 e1 bc f4 49 9b 3b
       0.14794719 -0.11064221 -0.027576236 0.0047390405
000060 5e 31 a0 3d d6 31 16 bd 5a 80 f3 bd 1c 6a 13 3d
       0.07821916 -0.03666862 -0.118897155 0.035989866
000070 1e c8 3a bd 8e 40 5d bc c4 0f 14 bd fc 27 0f be
       -0.045601003 -0.013504161 -0.036147848 -0.13980097
000080 df 8e 30 bd 5e 10 35 3d 95 8b 11 bc 91 fc 07 be
       -0.043105002 0.044205062 -0.008883377 -0.1327994
000090 25 c9 db bd 5a 21 c2 bd 05 fe 75 bd 4c ea 9b bd
       -0.10731725 -0.094790176 -0.060056705 -0.07613048
0000a0 23 f2 8b bd 26 4c 1c bd 8c 0b fe 3c e0 a4 02 3e
       -0.06833293 -0.03815856 0.031011365 0.12758207
0000b0 16 ce ad bd a9 f3 84 3e 77 a3 9d bd 9e c2 0c be
       -0.084865734 0.25967148 -0.07697194 -0.13746116
0000c0 8e 39 e2 bd 3a 01 69 bd 6b d1 b8 bd 24 55 ae bd
       -0.11046134 -0.056885935 -0.09024318 -0.08512333
0000d0 de 2a 3c bd b0 5f 15 3d dc 6f 29 3c 52 74 c1 ba
       -0.04593932 0.036468208 0.010341611 -0.0014759398
0000e0 f2 b2 c0 3b 57 b0 0f be 19 25 00 be 3a f1 23 3d
       0.005880707 -0.14032112 -0.12514152 0.040024973
0000f0 03 30 e2 bd ee f2 13 3b 07 ee 2f bd 2b 7a 49 3c
       -0.11044314 0.0022575217 -0.04295161 0.0122971935
000100 b8 63 f1 bc ac 99 bc bd 95 a1 9c bd 44 9e f1 bd
       -0.029466495 -0.09208998 -0.07648007 -0.11797765
000110 94 ff ed 3d 80 07 00 bd 80 5e 82 ba c0 32 2a be
       0.11621013 -0.031257153 -0.0009946376 -0.16620922
000120 d3 a9 ae 3b 81 0d 30 bc 36 96 e3 bd 4c 0e d8 bd
       0.005330303 -0.010745407 -0.11112635 -0.10549602
000130 b4 b3 f0 3d d8 59 da 3d 0a cd 12 3d 1d be 12 bc
       0.11753026 0.106616676 0.03584007 -0.008956459
000140 eb 38 d2 bd 81 03 2e 3d b3 3e 87 3c 0c df 0d be
       -0.102647625 0.04248381 0.01650939 -0.13854617
000150 03 71 aa bd 6a 73 f5 bd 24 ba ae bd fe 55 1e be
       -0.083223365 -0.11984904 -0.08531597 -0.15462491
000160 63 90 e2 bd 22 38 49 3d 88 22 7e bd 9c ae db bd
       -0.11062696 0.049125798 -0.06204465 -0.107266635
000170 97 d8 e5 bc 25 da 9e 3d 94 4b 35 3b 0d 07 e9 bc
       -0.02805738 0.077564515 0.0027663456 -0.028445745
000180 68 a0 d4 bd 8a d8 81 3d ef bb a1 bd c8 ed 58 3d
       -0.103821576 0.0634013 -0.078971736 0.05296114
000190 18 4f 00 be 8c de cc bd 6e 97 7a bd ae 39 17 be
       -0.12530172 -0.10003385 -0.06117957 -0.14768097
0001a0 64 fe 07 3d e9 b0 fa bd 2e 91 c2 bd 90 11 93 bd
       0.03320159 -0.12240774 -0.09500347 -0.07181084
0001b0 b8 6b 14 bc 72 a0 3c bd 20 81 d7 bc 70 52 08 3e
       -0.009058885 -0.04605145 -0.026306689 0.13312697
0001c0 4f db a9 3d 7e 8e ab 3b a1 72 27 bb 33 f4 da bd
       0.08293783 0.0052354923 -0.0025550502 -0.106911086
0001d0 4d ff db bc 35 5e 27 bc 62 7d d8 bd 2c 82 bb bd
       -0.026855135 -0.010215332 -0.1057079 -0.09155688
0001e0 3f 26 13 be ae 75 48 bd f8 d0 e0 bd c4 19 db bd
       -0.14370058 -0.048940353 -0.109773576 -0.10698274
0001f0 e7 4d b3 bd 95 90 c0 3c cc 5a e8 bc ab 94 22 3d
       -0.08755093 0.023506442 -0.028363608 0.039692562

linear3.weight f4 [256, 128]
000000 7c 18 3e bd 8f 8b 8a bb e9 28 71 bd 1c ff 17 3c
       -0.04641007 -0.0042280625 -0.058876906 0.009277131
000010 15 89 91 3d e1 57 98 3d c3 42 dc b6 81 8a 76 3d
       0.071062244 0.074386366 -6.564283e-06 0.06019068
000020 b1 f7 85 3d 83 ce 1f bd 40 cb 8f bb e8 49 20 3e
       0.06541384 -0.039015304 -0.004388243 0.15653193
000030 48 e5 3c bb bb d0 c5 bc 11 fc ac 3d a8 84 24 bd
       -0.0028823186 -0.024147382 0.08446515 -0.040165573
000040 70 12 4c bd 2b 19 8e bd bd 92 94 3c d4 3b 3c bd
       -0.04982227 -0.06938394 0.018136377 -0.045955494
000050 8e 5e b8 3d b9 c6 66 bd 33 34 d4 bb 5a bd bc 3d
       0.0900241 -0.05634186 -0.006475949 0.092158034
000060 5e b2 20 3d 63 a4 d0 3d 84 cd bb 3b 42 9b dd 3c
       0.039232604 0.10187604 0.0057312865 0.027051572
000070 70 9d 94 3d 7e 88 8f 3c 62 44 91 bd 88 a5 c5 bd
       0.07256591 0.01752114 -0.07093121 -0.09650713
000080 71 da 32 3d cf 1d 7c 3c 2e 10 39 bd cc 3c a0 bd
       0.043665353 0.015387966 -0.045181446 -0.07824096
000090 87 14 82 bd 3f 1f b8 bd ba 14 a2 bc 4e 06 e6 bb
       -0.063515715 -0.08990335 -0.019785274 -0.0070197945
0000a0 e0 b2 23 bd 6b 05 67 bd 08 c5 12 3d 75 f3 9d 3d
       -0.03996551 -0.05640165 0.035832435 0.07712451
0000b0 ed 87 91 bd 01 ed 88 3c 55 61 97 3d b1 0f ba bd
       -0.07106004 0.016714575 0.073916115 -0.09085024
0000c0 3f 85 c8 bc 88 46 c0 bd 22 76 cb 3b 44 85 8f bd
       -0.0244776 -0.09388453 0.006209151 -0.0700784
0000d0 20 86 2f 3d 06 c3 30 bd 0f 76 dd 3d b5 e1 6e bd
       0.04285252 -0.04315474 0.108135335 -0.05832072
0000e0 78 0b ac bd 63 88 21 bd 7c ab 1c 3c 50 1b 7e 3c
       -0.08400625 -0.03943671 0.009562369 0.0155094415
0000f0 6b 2f 63 bd b8 91 17 be 4d b4 10 bd 36 da f8 3c
       -0.055465143 -0.14801681 -0.0353282 0.030377489
000100 bf ae 2b bd 23 63 8f bb 38 2a 35 bc 8a f7 94 3c
       -0.041914698 -0.0043758317 -0.011057429 0.018184442
000110 6d 6a 87 3c de 32 9e 3c 3b 8d c6 3d d4 f2 02 3d
       0.01653024 0.019311365 0.09694906 0.03196986
000120 41 fb 8e bc 43 f7 93 bd ba 05 31 3d 52 ba aa 3d
       -0.017453792 -0.07224896 0.043218352 0.08336319
000130 e0 8f 45 3b 42 b2 9e 3d 1e af f2 3b 2a 18 a8 bd
       0.003014557 0.07748844 0.0074061295 -0.08207734
000140 f1 ab 2a bd 8c a7 bb 3c 66 8e 30 3d e3 d5 0b bd
       -0.041667882 0.022907041 0.04310455 -0.034139525
000150 d3 eb aa bb 98 48 0a 3d b6 c5 97 3d 17 09 4f bc
       -0.0052161007 0.033760637 0.07410757 -0.0126364445
000160 09 3d 9f bc ba ef 3f bd 4e a5 de bd e9 41 aa 3d
       -0.019438284 -0.04685948 -0.10871373 0.083133526
000170 b1 36 80 3d dc e8 86 3d 39 c3 c6 3d 3e d9 4d 3d
       0.062604316 0.06587383 0.097052045 0.050256006
000180 64 98 97 bd be 5a 28 bd 2e 78 32 3d 92 42 96 bc
       -0.07402113 -0.041102163 0.043571644 -0.01834229
000190 02 06 d1 bb b2 29 8d bb 2e b5 62 bd 61 c7 cf bc
       -0.00637889 -0.004307949 -0.055348568 -0.025363626
0001a0 ca cb 95 3d 04 11 0d bd da 78 51 3d 6e 2d c3 bd
       0.0731426 -0.034440055 0.051140644 -0.095301494
0001b0 45 6f dc bd 91 b0 43 bd eb 1f 81 bd 65 e7 e4 bd
       -0.107634105 -0.04777581 -0.06304916 -0.111769475
0001c0 72 04 24 bd 9d 6f 02 bd b5 01 d5 3d 6d 9a 72 bd
       -0.040043302 -0.031844724 0.10400716 -0.059229303
0001d0 b4 a8 9b 3d 1a 39 64 3d dc e9 0e 3d be 16 76 3d
       0.07600537 0.05571852 0.034890994 0.060080282
0001e0 17 3a 47 bb 63 87 cf bd 00 36 b8 bd 80 bf 55 3d
       -0.0030399614 -0.10133245 -0.08994675 0.05218458
0001f0 12 94 29 3d d2 48 0f 3c 38 eb 18 bd 8a 7f db bd
       0.041400976 0.008745389 -0.037333697 -0.107176855
000200 8f c2 d4 bb da 0b a9 bd a7 fb 41 3d 4c 61 a3 bd
       -0.0064929198 -0.08254214 0.047359135 -0.07977542
000210 c5 03 8c 3d 87 20 b8 bc 56 ed 31 3d 63 f7 3c be
       0.068366565 -0.022476448 0.04343923 -0.18453746
000220 34 ce 91 3c af 91 83 bd e5 d6 26 bd cc 0c c5 3c
       0.01779852 -0.06424271 -0.040732283 0.024053954
000230 df c8 04 3d 05 07 90 3d 36 5e 53 3d 81 ba cc bd
       0.032418128 0.07032589 0.05160352 -0.0999651
000240 a9 ae b7 3a 70 b4 de bb d6 e3 44 3d 60 c2 44 3d
       0.0014013845 -0.006796412 0.048068844 0.048036933
000250 51 ea 65 bd 50 bf 25 bd bd 62 b6 3c af b9 89 3d
       -0.056131665 -0.040465653 0.022263879 0.067248695
000260 d6 37 53 3d 10 dd 2e bd 63 c9 0c be 9c b4 99 bd
       0.05156692 -0.04269129 -0.13748698 -0.07505152
000270 be d9 6b bd cd 00 12 bd eb d8 d8 bd 20 e2 cc 3c
       -0.057580702 -0.035645295 -0.10588249 0.025010169
000280 7a 54 4f bd d7 ca bf bc b6 cd ce bd 6b 45 9b bb
       -0.050617673 -0.023412151 -0.1009783 -0.0047385
000290 40 2a b2 bd 44 c8 c7 bd 4d b7 49 bd bc 85 2d bd
       -0.08699465 -0.097549945 -0.049247075 -0.042363867
0002a0 2e 39 e6 bd d1 38 9f bd 46 a1 33 bd c3 22 23 bd
       -0.11241375 -0.07774509 -0.043854974 -0.039828073
0002b0 25 8e 8c 3d 53 e2 5e 3d b0 64 2b 3c 6f ee c4 3c
       0.068630494 0.05441506 0.0104610175 0.024039475
0002c0 c1 2e a9 3d d9 6f ed 3c 06 bc 2d 3d 8d d5 97 3d
       0.08260871 0.028983997 0.04241564 0.074137785
0002d0 89 20 88 3c 6e 05 49 3d e5 e4 9c bd 9e c2 9a bd
       0.016617076 0.049077444 -0.07660846 -0.075566515
0002e0 48 d8 11 bc 49 f6 84 3d 95 55 31 3c 7f 9b b4 bd
       -0.008901663 0.06492288 0.010823627 -0.08818721
0002f0 60 5a 2d 3b 06 87 a8 bd 64 81 1d 3c e5 90 50 bd
       0.0026451573 -0.08228879 0.009613369 -0.050919432
000300 91 cb 09 be 9f 16 7d bd 7b 25 c4 bc 8c af 6f 3d
       -0.1345656 -0.06178915 -0.023943653 0.058517024
000310 2c 8c 13 be 27 c8 86 bd 0a 4c 6f bb b0 7f 1e bd
       -0.1440894 -0.06581145 -0.0036513829 -0.03869599
000320 91 d2 a2 3d c9 b4 e2 bd f3 ed ac bd 0c ff 92 bd
       0.079503186 -0.11069638 -0.08443823 -0.071775526
000330 70 87 c0 bd 23 2d cb bd 1c 7b 33 3d 4a 3e 51 bd
       -0.09400833 -0.099207185 0.043818578 -0.051084794
000340 89 aa 17 be 4e b8 9a 3b a2 cc 25 3d 9a b7 38 3d
       -0.14811148 0.004721678 0.040478356 0.04509697
000350 76 31 3c 3c 98 fd 63 bc 9d 71 0d be 2f 3c 6a 3d
       0.011486402 -0.013915442 -0.13812871 0.0571863
000360 c1 10 82 3d 9f 66 dc 3b 39 8f 6e bd c2 6f 66 3d
       0.06350852 0.0067261006 -0.058242057 0.056258924
000370 7e 9b 94 3d 05 41 54 3d c6 d4 33 3d f5 e8 6c bd
       0.0725622 0.05181982 0.04390409 -0.057839353
000380 e8 28 a8 bc 30 d8 34 bc 97 33 c5 bd 29 38 ba bd
       -0.020527318 -0.011037871 -0.096289806 -0.09092743
000390 0f d3 08 3d 99 5b b4 3d e8 97 2c bc 26 77 bf bd
       0.033404406 0.08806533 -0.010534264 -0.09348898
0003a0 b1 99 d0 3c 03 59 93 3d 33 90 9b bd ce de 36 bc
       0.02546391 0.07194712 -0.07595863 -0.011161519
0003b0 82 5e 39 3c 42 b9 d8 bc 18 07 9b 3b 40 3f 84 3a
       0.011314036 -0.026455525 0.0047310703 0.0010089651
0003c0 be 67 20 bc 05 66 43 3c 25 ae d3 3b b5 c0 09 bd
       -0.009790359 0.011926179 0.0064599686 -0.033631045
0003d0 b8 29 8e bd fe bb 76 3c be da 41 bd 11 7d 22 bd
       -0.06941551 0.015059469 -0.04732775 -0.039670054
0003e0 3a ac 6d bd 70 c1 0b 3d 8e 4b 9e bd 40 7b e0 bc
       -0.058025576 0.034120023 -0.07729255 -0.02740252
0003f0 b1 44 86 3d d5 0c fb bc 58 2f 68 bc 84 a4 09 3c
       0.065560706 -0.030645767 -0.014171444 0.00840104

linear3.bias f4 [256]
000000 98 09 85 3d 61 ea 5d bd 86 fa 2c 3e 68 ea da 3c
       0.064959705 -0.0541786 0.16892442 0.026723102
000010 82 22 af 3d 84 1b b8 3c d3 36 35 3d ed f7 6b 3c
       0.08551504 0.022474058 0.044241738 0.014402372
000020 82 35 e3 bd 3b 71 cc bd 06 48 1b be c0 92 e0 bd
       -0.1109419 -0.099825345 -0.15164194 -0.1096549
000030 7a b1 03 be 6f c8 c4 3d 2c b6 1d bd f2 2f 53 bd
       -0.1286067 0.09608542 -0.03850381 -0.051559396
000040 97 3c 32 bd dd 05 d9 bc 58 8a eb bd f9 67 15 3e
       -0.043514814 -0.026492054 -0.11500996 0.14590444
000050 4b f2 94 bd 07 1c a1 3d b1 9e 8e bc 08 58 0a be
       -0.07272776 0.07866674 -0.017409654 -0.13510144
000060 f3 f6 8c bd 71 aa 26 3e 99 eb 5d 3d 60 04 0e 3e
       -0.06883039 0.16275956 0.05417976 0.13868856
000070 4b c8 88 bd 36 d9 aa 3d 10 3b a3 bd d1 9f a9 bd
       -0.06678828 0.08342211 -0.0797025 -0.08282436
000080 90 f5 6c 3d 7a 02 41 3d 1a 48 f2 bb 89 a5 32 bd
       0.057851374 0.047121502 -0.007393849 -0.043614898
000090 1c 4f d8 3c dc 00 08 3e 50 61 8e bd cd d6 41 bc
       0.02640491 0.13281578 -0.06952155 -0.011830998
0000a0 e7 f3 f8 bd b2 9b 8a bd fd cc af bd 69 b7 74 3e
       -0.12155896 -0.06767978 -0.0858402 0.2389809
0000b0 b9 03 b6 3c fa d5 35 3d 59 bc 2e bd a3 fa 3c 3c
       0.022218572 0.044393517 -0.04266009 0.011534366
0000c0 72 cb ad bd 0f 47 8c 3c a3 2f e1 bd 0a fe 89 bd
       -0.0848607 0.017123727 -0.10995414 -0.06737907
0000d0 4e e0 95 3d dc 0f 5e bd 51 28 8b bd 03 7c b6 bd
       0.07318173 -0.054214343 -0.06794799 -0.08910372
0000e0 55 fe 6d bd 41 43 52 bd d5 b5 4d bd 13 89 3a bd
       -0.058103878 -0.05133367 -0.050222237 -0.04554088
0000f0 eb 4a 8f bd e3 73 8a bd f9 c0 db ba 1a af 9e bd
       -0.06996711 -0.06760385 -0.0016765884 -0.07748242
000100 cf 02 ce bd b3 74 a4 bd 1b e6 6e bd ba 7e f4 bc
       -0.100591294 -0.08030071 -0.058324914 -0.029845584
000110 f2 ca 9f bd bf 1a 0b 3c fa d1 9b bd d9 e3 0d 3d
       -0.078023806 0.0084902635 -0.07608409 0.03464112
000120 bd 1c ec bd a7 c5 98 3a 57 3a be bd 29 c0 23 3e
       -0.11528919 0.0011655585 -0.09288471 0.15991272
000130 32 43 33 bd 26 c3 2b be e7 0d f1 bd 2b 75 a1 3d
       -0.043765254 -0.16773662 -0.1177023 0.07883676
000140 a1 4c 2b 3d 8a d5 ef bd 83 d4 d3 bc 2b 45 ca bd
       0.041821126 -0.11710651 -0.02585817 -0.09876474
000150 e9 15 95 bd fe 36 e6 bd e9 49 e3 3d b1 ad 68 bd
       -0.0727957 -0.11240958 0.110980816 -0.05680627
000160 74 d7 85 bd f1 dd 90 3d 9c 12 fc bb 73 1c a3 bd
       -0.06535235 0.07073582 -0.007692648 -0.07964411
000170 e2 63 75 bd a3 08 1a bd c7 ad 5e bc 44 ed 3e bd
       -0.05990971 -0.037605893 -0.013591236 -0.046612993
000180 f3 ed a7 bd 82 47 2e bc db a7 f6 bb 9f ce ab bd
       -0.08199682 -0.010637166 -0.007527334 -0.08389019
000190 e7 10 2f bd 3a 7f eb 3a de dd 30 be c1 43 39 3d
       -0.04274073 0.0017966994 -0.17272136 0.04523063
0001a0 3d 02 92 3d 49 da 0a bd bd ee 8d bd 27 c7 5e bb
       0.07129333 -0.03389958 -0.06930301 -0.0033993216
0001b0 5e a7 1d bd ba c6 ca bd 11 82 2c bd 61 42 c4 bd
       -0.038489692 -0.09901185 -0.04211623 -0.09582973
0001c0 47 80 e5 bd 3f 85 e7 bc 02 af dc bd 16 d4 d4 bc
       -0.112061076 -0.028261779 -0.107755676 -0.025980037
0001d0 e3 24 c9 bc f4 e9 eb 3d 97 23 ad bd b1 26 ce bd
       -0.024553722 0.115192324 -0.08454054 -0.100659736
0001e0 e9 46 9c 3c 78 11 e9 bd 9d be 2c bd cf 15 85 3d
       0.019076781 -0.11380285 -0.04217397 0.064983
0001f0 4b 42 33 be 9b b1 a6 bd b5 10 27 3e 81 44 e0 bc
       -0.17505758 -0.08139344 0.16314967 -0.027376415
000200 80 52 a4 bd 43 68 a0 bd 88 94 83 3b 32 47 35 3e
       -0.08023548 -0.07832386 0.004015509 0.1770294
000210 68 2f f1 3d dd 0f 95 bd 15 de a1 bd 1c d1 a5 3d
       0.1177662 -0.07278416 -0.07903687 0.08096525
000220 6f dd 79 bb c3 63 2a 3e 13 81 6c bd f8 b8 aa bd
       -0.003812637 0.16639619 -0.057740282 -0.08336061
000230 8c bb d8 bd 5b d1 b2 bd b5 85 ee bd e8 ab 97 bd
       -0.10582647 -0.08731338 -0.11646596 -0.074058354
000240 93 8b 1a 3e 7f 88 e7 bd c3 ed 46 3d de cd 0b be
       0.15092306 -0.113053314 0.04856659 -0.13652751
000250 5b 1d 6e 3d 3a 93 cf bd 92 12 d7 bd 87 e0 b8 3c
       0.058133464 -0.10135503 -0.10501589 0.022568
000260 ae 31 76 3c 88 fe 0c be 90 9a ea 3a af a4 63 bd
       0.015026493 -0.13768971 0.0017898846 -0.055576976
000270 9c f8 82 bd 60 f5 4b bc cc 0a d9 bc ee 32 1d bd
       -0.06395075 -0.012448639 -0.026494406 -0.03837865
000280 c7 58 f2 bd 25 be 18 3e 5d 52 27 be 4a 36 b7 3d
       -0.11833339 0.14916284 -0.16340013 0.08945902
000290 9b 2a 3c bd c1 a3 07 bc 0f 12 d5 bc 6b 89 14 be
       -0.04593907 -0.008278788 -0.026009588 -0.14505546
0002a0 05 18 d9 3c 08 07 05 3b d3 c2 83 bd 22 83 cc bd
       0.026500711 0.002029838 -0.06433644 -0.09985949
0002b0 20 54 31 bc 4d 2c 01 bd 3a 65 98 bd 40 f5 35 bd
       -0.01082328 -0.03153639 -0.074411824 -0.04442334
0002c0 71 64 3e 3c 99 db 9c bd ac 67 c1 bc b9 f4 9e bd
       0.011620627 -0.076590724 -0.023609005 -0.07761521
0002d0 2d 64 fd 3b c4 88 ac bd bf b3 01 3d 82 8c da 3b
       0.007732889 -0.084245235 0.03166556 0.006669582
0002e0 3c 6d c1 bd 7a 56 9c bd 4d 30 c7 3b 15 57 be bd
       -0.09444663 -0.076336816 0.006078756 -0.09293953
0002f0 98 19 c7 bd 94 b0 b9 bd ca 23 00 3d e4 16 c0 bc
       -0.097216785 -0.09066883 0.03128413 -0.023448415
000300 1b f5 c6 bc bc ce 59 bd ee 1a 81 bc b2 9e 20 bc
       -0.024286797 -0.053175673 -0.015759911 -0.009803461
000310 15 57 88 bd 5c 8b 82 bd 1b fd 27 3c 76 5b 3e bd
       -0.066572346 -0.06374237 0.010253216 -0.046473943
000320 c4 f6 ab bd 3a 73 85 3d bf 40 e3 bd 23 2b 98 bd
       -0.08396676 0.06516118 -0.11096334 -0.07430103
000330 8a 97 4f 3c 01 73 3b 3e bd 8e 55 3e e1 66 09 bd
       0.012670407 0.1830559 0.20855232 -0.03354538
000340 52 fc ba bc 8f e8 95 bd cf 59 82 bd 39 8e bc bd
       -0.022825394 -0.07319748 -0.06364786 -0.09206814
000350 d2 0f a2 bd ff 98 ae bd 7f 02 1c be 4a af a7 3c
       -0.07913174 -0.085252754 -0.15235327 0.020469327
000360 85 57 77 bd 91 91 e0 bd 56 25 8f 3d 79 27 ba bd
       -0.0603862 -0.109652646 0.06989543 -0.0908956
000370 43 82 47 bd 34 bf 25 bd 8f 06 25 bc 7c 10 a7 bd
       -0.04870821 -0.04046555 -0.0100723645 -0.08157441
000380 fa 1b 0f bd a0 85 98 bd 1a 67 82 3d cc 74 8d bd
       -0.03493879 -0.07447362 0.06367321 -0.06907043
000390 98 05 b1 bd 7b 82 af bd d4 f1 1c be f3 a9 92 bd
       -0.08643645 -0.08569809 -0.15326625 -0.071613215
0003a0 73 69 2d 3b 7a ee 61 bd 70 5b 4f bd af e0 a2 3d
       0.0026460558 -0.05515907 -0.05062431 0.07953011
0003b0 b4 d9 4d 3d ea c3 1b bd ad 23 ee bd 54 a2 1f be
       0.050256446 -0.038028635 -0.11627898 -0.15589267
0003c0 b4 28 c1 bd 3c 04 a0 bd b6 e8 2d 3d ff 49 1a 3d
       -0.09431592 -0.07813308 0.04245826 0.037668224
0003d0 f4 5c da bd f5 ee bc bd f8 f7 26 3e d2 42 cb bc
       -0.10662261 -0.09225265 0.1630553 -0.024812136
0003e0 6f 79 80 3b 87 f0 0e 3d 0d 45 8c bd 0e d2 9d bc
       0.003920726 0.034897354 -0.06849108 -0.019265201
0003f0 95 f1 d2 bd 8d 6f 2a bd 34 a2 f3 bb 05 2d 9e 3d
       -0.10299984 -0.04161029 -0.0074351076 0.077234305

linear4.weight f4 [64, 256]
000000 0a 01 a8 bd a2 fd 78 bd 10 f6 50 bd 4b 79 fc bb
       -0.08203323 -0.060788758 -0.051015913 -0.007704889
000010 66 61 84 3c 80 54 52 3d 85 8b 83 bd 66 f7 0a bd
       0.016159724 0.051350117 -0.064230956 -0.033927344
000020 30 7f 10 bc 03 4e 1f bd cc 02 5e 3d 00 fc de ba
       -0.008819386 -0.038892757 0.054201886 -0.0017012358
000030 04 18 1f bd eb 4b d1 bc c4 fc 98 bc b0 da 62 3d
       -0.038841262 -0.025548896 -0.018675216 0.055384338
000040 db b6 99 bd fc f7 36 bd 24 30 c0 bc 96 84 4e 3d
       -0.0750558 -0.04467009 -0.023460455 0.050419413
000050 58 65 bc bc 10 3f 2d 3d 14 bb 23 bd 14 11 01 bd
       -0.022997543 0.04229647 -0.039973333 -0.031510428
000060 30 2f 4e bd bf 7d 1e be 08 c5 27 bd 1a 31 25 bd
       -0.05033797 -0.15477656 -0.040959388 -0.04033003
000070 88 da 2b bc ed f9 a9 bd 32 12 79 3d 36 dc 19 bd
       -0.010489114 -0.08299623 0.060808368 -0.037563525
000080 37 25 73 bd 0c 80 b4 3c c0 fe 99 3b 70 36 51 bd
       -0.059361663 0.022033714 0.004699558 -0.051077306
000090 de 48 31 bd 31 ef 9c 3c 68 e4 a0 3c e0 44 4f 3c
       -0.043282382 0.019157024 0.019640163 0.012650698
0000a0 48 53 86 bc 1d 3c 91 bd 14 1a 12 3d f1 50 87 bd
       -0.016397133 -0.07091544 0.0356694 -0.06607235
0000b0 fb a4 54 bd 38 a8 08 3d e0 62 47 3c 75 b7 31 bd
       -0.05191515 0.03336355 0.01216957 -0.04338785
0000c0 70 34 4a bc 66 2d 6a 3d 9e 06 77 bd c9 e0 bb bc
       -0.012341604 0.0571722 -0.060309045 -0.022934334
0000d0 4e de a9 bd b8 9d de bc 38 9d 13 3d c0 a8 04 bd
       -0.082943544 -0.027174816 0.036038607 -0.032387495
0000e0 b6 4a 27 3d 4c 6e 35 bd 40 51 2b bd 90 24 b5 3b
       0.040842734 -0.04429464 -0.041825533 0.00552804
0000f0 02 02 55 bc a4 74 95 bc b2 3f 43 3d 58 d1 41 bc
       -0.013000967 -0.018244095 0.047668166 -0.011829697
000100 94 5f 40 3d 8c 4b 92 bc 28 f0 46 bc f6 d2 45 bd
       0.04696615 -0.01785829 -0.012142219 -0.04829689
000110 a2 b4 49 3d 8c ea 13 3d d0 57 45 bd 03 42 10 bd
       0.04924453 0.036112353 -0.048179448 -0.035219204
000120 48 ed a0 bc 77 5b 27 3c ac cf 73 3d 02 0e 83 bd
       -0.019644395 0.010214678 0.059524223 -0.06399156
000130 46 ec 37 bd 68 30 53 3c 76 61 2f bd b4 15 1a 3d
       -0.044903062 0.012889959 -0.042817555 0.037618354
000140 60 74 0c bb 68 6d bd bc 84 a9 71 bd 24 75 6d bc
       -0.002143167 -0.023123458 -0.058999553 -0.0144932605
000150 34 ad 02 3d 70 7a 54 3c 83 5b b0 bd 94 64 89 bc
       0.03190346 0.0129686445 -0.086112045 -0.016771592
000160 e0 cf 2d 3c 7b 78 7d bd 23 f7 0a 3d 7a 69 9c bd
       0.010608643 -0.061882477 0.033927094 -0.076373056
000170 e4 32 87 bc 10 5f ca bb 28 1c 81 3c be 51 3c bd
       -0.016503759 -0.006175883 0.015760496 -0.045976393
000180 4c 53 59 3d 80 15 92 bc f0 02 4e bd dc 54 4a 3d
       0.053057954 -0.017832518 -0.05029577 0.049397334
000190 0e 6f cf bb 51 10 ed ba 10 f7 ee bc f8 5c 3d bc
       -0.0063303774 -0.0018086528 -0.029170543 -0.01155781
0001a0 b0 78 1c bc 50 cb 83 3b 34 aa 5c 3d 3a fd 36 bd
       -0.0095502585 0.0040220395 0.053873256 -0.04467509
0001b0 ca a0 7d bd 08 fe b3 bc 00 dd 49 3a e0 2c 16 bb
       -0.06192092 -0.021971717 0.0007700473 -0.0022914931
0001c0 14 f3 12 3d 7a b7 21 3d a8 c2 b2 3c 70 19 f7 bc
       0.03587635 0.039481618 0.021821335 -0.030163497
0001d0 a4 5d 47 3d 4a 7b 1b 3b f8 a5 f6 bc 5a d3 25 3d
       0.048673287 0.002372461 -0.030108437 0.040484764
0001e0 96 88 5a bd f0 0b 43 bd 38 02 67 3d 98 5b b2 3c
       -0.053352915 -0.047618806 0.0563986 0.02177219
0001f0 80 c3 0c bc 70 04 68 bc ad fd 06 be 58 5d 47 bc
       -0.008591533 -0.014161214 -0.13182707 -0.012168251
000200 78 7c 4f 3d ac e4 f8 3c 40 b4 73 3c 90 2e 72 bd
       0.050655812 0.030382477 0.014874518 -0.059126437
000210 31 88 9f bd 90 79 9c bb 34 6a 0b 3d b8 dd 11 be
       -0.07789648 -0.0047752336 0.03403683 -0.14244735
000220 03 f1 2a bd 8f a3 24 bd a0 d5 22 3d f0 89 bc bb
       -0.041733753 -0.040195044 0.03975451 -0.005753748
000230 98 91 0a bc 90 92 83 3b c8 e1 f6 3c 6a db 51 bd
       -0.008457564 0.0040152743 0.030136958 -0.05123464
000240 40 cc 38 bd 20 11 3d 3c ca 1b 92 bd a0 99 ba bc
       -0.045116663 0.011539727 -0.071342066 -0.022778332
000250 31 b6 8e bd 3a d5 4b 3d 20 6c 26 3b 8c 5b ae 3c
       -0.06968344 0.049763896 0.0025394037 0.021283887
000260 ef d0 2c bd a8 0d 2e 3d fc dd 12 3c 18 58 38 3d
       -0.042191442 0.042493492 0.008964058 0.045005888
000270 60 f8 7c bd 28 ab e3 3c 9e 3f 42 bd 14 a9 2d 3d
       -0.061760306 0.027791575 -0.04742395 0.042397574
000280 e0 f9 1f 3b 5c 4e 45 bc 3a 6e 77 3d c4 5b e6 bd
       0.0024410412 -0.012042608 0.060407855 -0.11247972
000290 14 8d e3 bc a0 7e ca 3c b8 d8 27 3d e0 41 3a bb
       -0.027777232 0.024718583 0.040978163 -0.0028420612
0002a0 12 86 0a bd 2c 9a 0a 3d cd c8 38 bd b8 25 df bc
       -0.033819266 0.033838436 -0.045113374 -0.027239665
0002b0 00 d0 b8 b7 5d e4 80 bd 68 a2 e0 bc fd 85 fb bd
       -2.2031367e-05 -0.06293557 -0.027421191 -0.122814156
0002c0 4a 19 1a 3d 98 3c f5 3c f6 51 93 39 e4 37 a7 3c
       0.037621774 0.02993612 0.0002809909 0.020412393
0002d0 1e 25 14 bd 00 5a 3a 3a 40 02 94 3c 00 60 3f b8
       -0.03616821 0.0007108748 0.01806748 -4.5627356e-05
0002e0 a0 67 2e 3c d4 ab 0a 3d 78 c1 0f bd 54 dc ba bc
       0.010644823 0.033855274 -0.035096616 -0.022810139
0002f0 94 0e c4 bc a0 91 7a bb 2e 6c 7b 3d d3 98 17 bd
       -0.023932733 -0.0038233772 0.061382465 -0.03701098
000300 18 b8 db bc f5 da 24 bd 30 3c 16 3d c2 60 ee bd
       -0.026821181 -0.040247876 0.036678493 -0.11639549
000310 ac 3f fb bc 44 ab 31 bd 46 36 73 bd 00 f0 32 3b
       -0.03067001 -0.043376222 -0.05937793 0.0027303696
000320 68 cf 9a bc 4a de 6a bd 8c 91 6b 3b e6 89 43 bd
       -0.018897727 -0.057340898 0.0035944907 -0.047738932
000330 e0 0c 46 bd d7 7e d6 bd 07 99 f9 bc 04 d2 24 bd
       -0.048352122 -0.104734115 -0.030468477 -0.04023935
000340 d7 48 c7 bd 3a ea 5a bd 46 65 5e bd 40 00 51 bc
       -0.0973069 -0.053446032 -0.0542958 -0.012756407
000350 e0 ff aa 3b dc de bd bc 71 a9 32 bd 50 1c b0 bc
       0.005218491 -0.023177557 -0.043618623 -0.021497875
000360 25 25 1e 3c a0 ea 4f bb d8 fd 81 bc e0 54 87 3c
       0.009652411 -0.003172554 -0.015868112 0.016519964
000370 ce 15 6f 3d f2 71 43 bd 50 50 da 3b 40 34 87 3b
       0.058370404 -0.04771609 0.006662406 0.0041261017
000380 2c 60 18 3d 0e 7c 57 bd 50 78 70 bc c4 75 f4 3c
       0.03720109 -0.052608542 -0.014677122 0.029841311
000390 ea aa 29 3d 88 62 0e 3d 8c 5e d0 3c 28 85 00 bc
       0.041422762 0.034761935 0.025435708 -0.007844247
0003a0 20 85 d1 3b 80 24 9b 3a e8 fa 58 3c 15 8c 6e bd
       0.0063940436 0.0011836439 0.013243414 -0.05823906
0003b0 ec 30 68 3d 9e 2e 74 3d 4c fd b7 3c 54 d9 a1 bd
       0.05668728 0.05961477 0.022459649 -0.0790278
0003c0 5e 37 ed bd 34 2a 7a 3d 28 b5 2b 3d e4 b2 75 3d
       -0.11582826 0.061075404 0.04192081 0.059985057
0003d0 b0 4f 8b 3b 00 51 79 3c 1d 1b 85 bd d7 37 36 bc
       0.004251443 0.015217066 -0.06499312 -0.011121712
0003e0 f6 e1 7c bd 24 20 0e 3d 2f 23 e2 bd 00 4d 2b ba
       -0.06173893 0.03469862 -0.11041867 -0.0006534606
0003f0 92 45 d3 3b c0 8f 3c 3c 44 d9 38 bd aa 2a 96 bd
       0.0064475024 0.011508882 -0.045129076 -0.07332356

linear4.bias f4 [64]
000000 c4 e9 b1 bd 26 94 32 3e 16 46 41 3e 2d c7 21 bc
       -0.086871654 0.17439327 0.18874392 -0.009874147
000010 c8 a8 4e 3c 36 31 a6 3c 52 f6 5d 3e 88 25 c1 bd
       0.012613483 0.020287137 0.21675995 -0.09430987
000020 22 00 9c 3d 81 d3 9d 3c 89 32 17 bc 76 05 ed 3c
       0.07617213 0.019265892 -0.009228357 0.028933268
000030 aa 3e cb bb de 03 cf 3d 49 33 19 3d d1 11 24 bd
       -0.0062025385 0.101081595 0.037402425 -0.040056054
000040 46 30 5c 3e 3a f3 77 3d f4 cf 09 be c5 94 87 bd
       0.2150279 0.060534693 -0.13458234 -0.066201724
000050 e6 34 c9 bd 95 80 a1 bc 69 8d 18 be 87 14 87 bc
       -0.09824543 -0.019714633 -0.14897694 -0.01648928
000060 ae 6b 8f bc 5a 2c 76 bd 48 41 09 3e c1 ff 18 be
       -0.0175074 -0.06010089 0.13403809 -0.14941312
000070 3e 4e 91 3b c9 b4 08 be ea c8 d5 3d 34 f3 7d bd
       0.004434376 -0.13350214 0.10438712 -0.061999515
000080 89 3f 38 bd 5e fe ee bd 9e 73 6e bd a6 df 97 bd
       -0.044982467 -0.116696104 -0.05821573 -0.074157044
000090 a7 9b 7d bd 2f 52 42 bd c4 f5 86 bd 0c d2 99 bc
       -0.06191602 -0.047441658 -0.06589845 -0.018776916
0000a0 82 6f 4a 3e 68 7f 20 bd 6d 6e 72 bd 3a 1f 26 3a
       0.197691 -0.039184004 -0.05918734 0.00063370506
0000b0 57 e8 1d 3e c4 89 bb bd 6d 11 0c be 77 e1 fe 3b
       0.15420662 -0.09157136 -0.13678522 0.0077783423
0000c0 f3 33 d2 bb 6a a5 c4 3d da 52 3c 3e fb 0e d4 3c
       -0.0064148842 0.09601863 0.1839098 0.02588605
0000d0 fe 19 55 3c 5c dc 0e bd be 55 bb 3b 36 26 10 bd
       0.013006685 -0.03487812 0.0057170084 -0.03519269
0000e0 a4 0d 5d bd 4b f7 0b be d6 e9 10 bb dd df 88 bc
       -0.053968087 -0.13668554 -0.0022112033 -0.016708309
0000f0 38 2b 69 bc 82 a7 79 bd 40 3b c0 bc 4d 61 0f bb
       -0.014231496 -0.060950764 -0.023465753 -0.0021878064

linear5.weight f4 [3, 64]
000000 2e 37 5e 3d 7d 39 28 be bc e4 11 be 67 b9 16 bd
       0.054251842 -0.1642818 -0.14247411 -0.036797907
000010 a7 a2 85 bb 07 2b 39 bd 45 19 0e be f4 bb c3 3d
       -0.0040782276 -0.04520705 -0.13876827 0.095573336
000020 91 6f 2e bd f4 c1 5e bd 80 10 80 bc 6a 8e 3d bd
       -0.042586867 -0.054384187 -0.015632868 -0.046278395
000030 64 17 ce bd 1c 82 c3 bd 17 97 00 be 49 95 8b bd
       -0.10063055 -0.09546301 -0.12557636 -0.06815583
000040 01 3b 18 be db ba ce bd 38 0b 6e bd 29 43 ba bc
       -0.14866258 -0.100942336 -0.058116168 -0.022737103
000050 bc a0 a5 bd 14 b6 80 3d df ef 39 3d b2 eb b3 bc
       -0.08087298 0.06284729 0.045394775 -0.021962974
000060 b0 f9 2e 3d 7c 01 cd bd f3 e9 14 be 52 6e f6 bd
       0.04271859 -0.10010049 -0.1454237 -0.12032761
000070 32 6d b5 bd e3 b7 dc bc 8f b2 16 be e0 18 ee 3c
       -0.08858718 -0.026943153 -0.14716552 0.029064596
000080 6b 92 fb 3c 82 19 b3 3d 50 9a 37 bd 7c 33 25 3d
       0.030709466 0.087450996 -0.0448249 0.040332302
000090 80 9a 9f 3c 15 2e 28 bd 0a 05 8f bd a5 d7 bf bc
       0.019482851 -0.041059572 -0.06983383 -0.023418257
0000a0 74 57 e0 bd 3d 1a 93 3c a4 92 ae 3d 83 f6 8c bd
       -0.1095418 0.017956847 0.08524063 -0.06882956
0000b0 66 10 8b bb 48 c0 9e bc bc 96 91 bd 0b 51 8d 3c
       -0.004243898 -0.019378796 -0.071088284 0.017250558
0000c0 d0 0c 48 3d f9 c2 1a 3d fa 4a b3 bd 96 27 d6 bd
       0.048840344 0.037783597 -0.08754535 -0.10456769
0000d0 0d 7a 01 bd 4e 72 06 bd 74 50 dd bd 94 2e c2 3d
       -0.031610537 -0.032823853 -0.10806361 0.0948154
0000e0 80 d9 af bc a0 a3 d1 bc 21 1d 89 bd 62 35 9e bd
       -0.021466017 -0.025590718 -0.06695009 -0.07725026
0000f0 b8 0f e0 bd 50 b9 79 bd a6 36 ac bd 8e d5 3c 3c
       -0.10940498 -0.060967743 -0.08408861 0.011525525
000100 23 9b 3c bd 9e 4a 76 bc a7 87 8c bd 5f d2 64 3c
       -0.046046387 -0.015032439 -0.06861811 0.013966172
000110 ef 24 63 bd 61 db 86 3d 58 1c 47 3c b4 16 6b 3c
       -0.055455144 0.06584812 0.012152754 0.014348675
000120 10 96 0c be 0f 60 85 bd b4 ae 32 bd 3a 63 30 3e
       -0.1372912 -0.06512462 -0.04362364 0.17225352
000130 f7 f0 de bc 9a 2a 11 be 50 e8 ee 3a 87 da 01 3d
       -0.02721451 -0.14176407 0.0018227194 0.031702545
000140 1c 5b 3f be 2c bd 2d be 58 6a 9c 3c b8 f8 cb bd
       -0.18687099 -0.16966695 0.019093677 -0.09959549
000150 16 3f 91 3d 90 19 10 3d 80 62 95 bb 9e 4e be bb
       0.07092111 0.03518063 -0.0045588613 -0.0058077117
000160 74 39 5d bd ca ce dd bd 39 5b 46 be f9 c1 eb 3c
       -0.05400987 -0.108304575 -0.19370736 0.028779017
000170 1b a1 92 bd 60 92 3f 3d d6 95 21 be fd a5 d3 3c
       -0.07159635 0.046770453 -0.15779814 0.025835985
000180 7f 91 ad bc b8 4a 56 3a 5b 8e 1e 3d 53 ad 4d 3d
       -0.021187542 0.0008174586 0.03870998 0.050214123
000190 b5 00 14 3d c3 1f 63 3e dc 97 bd 3c ff 67 59 3d
       0.036133487 0.22180085 0.023143701 0.053077694
0001a0 e9 81 be bd a9 58 7b bd ec c2 9a 3d e5 4e 08 3d
       -0.09302122 -0.06136385 0.0755671 0.033278365
0001b0 6e 7e 2c be 9c 09 91 bc d6 e9 89 3d 04 a1 9a bb
       -0.16845104 -0.017704777 0.06734054 -0.0047189016
0001c0 6c 51 98 3d d2 30 60 3e 2c e9 36 be 93 b6 bf 3c
       0.07437405 0.21893623 -0.17862386 0.023402488
0001d0 b0 3c 8a bd b3 0f 8c 3c 7d 7c 9c 3c f9 2f 22 bd
       -0.067498565 0.01709733 0.01910233 -0.03959653
0001e0 90 8a 27 3d 42 9c f2 3c 9a 8a 4a bd 84 30 79 bd
       0.040903628 0.029615525 -0.049448587 -0.060837284
0001f0 58 39 e9 3c d4 b4 23 bd 00 94 22 bd 38 7e 3d 3d
       0.028469726 -0.039967373 -0.039691925 0.04626295
000200 60 df ba bd 77 84 75 be 88 62 45 be 52 b8 00 bd
       -0.09124637 -0.23976313 -0.19275868 -0.03142578
000210 ce db e4 3d cc 93 98 bd e4 65 84 be 50 39 c2 bd
       0.11174737 -0.07450065 -0.25858986 -0.09483588
000220 46 59 8e bd e4 87 cb bd d2 1c df bd 56 9a 6c 3d
       -0.06950621 -0.099380285 -0.10894169 0.057764374
000230 bc bd 83 3d 60 06 3b be 61 61 27 be ff 9a c0 bc
       0.06432673 -0.1826415 -0.16345741 -0.023511408
000240 e3 68 45 be 9d 85 d1 bd a5 7b ce bb e8 60 65 bd
       -0.19278292 -0.10230563 -0.0063013607 -0.05600062
000250 48 19 41 bd da 66 ed bd 40 f1 cd bb ee bf e3 bd
       -0.04714325 -0.11591883 -0.0062848628 -0.11120592
000260 12 68 56 3d 50 78 3a bc 28 0c b5 bd 3b ee f0 b8
       0.052345343 -0.011381224 -0.08840209 -0.00011488466
000270 52 16 ee 3d 2c 2d 15 be a6 a6 1a be 93 f4 b4 3c
       0.11625351 -0.14568013 -0.15102634 0.022089278
000280 48 9c d0 3b 55 1a 15 3e af 72 87 bd 30 df 3b 3d
       0.0063662864 0.14560826 -0.06613671 0.045867145
000290 92 e5 e1 bd 96 fb a2 bd ac bb 74 ba c4 ed 68 3d
       -0.11030115 -0.079581425 -0.00093358266 0.056867376
0002a0 20 50 0e be 17 4b 35 3d 70 6b e1 3c 31 2d d8 bc
       -0.13897753 0.044261064 0.02751705 -0.026388736
0002b0 cc 1e 1f be da cd 4c 3a 64 9f d9 3c c6 58 f9 3d
       -0.15539092 0.00078126567 0.026565261 0.12175135
0002c0 68 05 1d 3d 93 42 36 be 72 84 2a be f0 25 d7 bd
       0.038335234 -0.17798834 -0.16652086 -0.10505283
0002d0 db 36 c7 3d af 20 af 3d 94 55 ce bd 6a 37 ba 3c
       0.0972726 0.08551156 -0.100749165 0.022731502
0002e0 bc a7 34 3d c7 d9 14 3d d3 9b 22 bd 63 54 72 bc
       0.044105276 0.0363405 -0.039699387 -0.014790627
0002f0 6c ab 61 3d 84 f7 09 bd 30 38 0a bd 8b e3 0f 3d
       0.05509512 -0.033683315 -0.03374499 0.03512911

linear5.bias f4 [3]
000000 e9 3f 99 3c 72 de e1 bd 19 8e 7c be
       0.018707233 -0.11028756 -0.24663581
