model/model.pth (torch, 148311 bytes, 6 tensors)

linear1.weight f4 [256, 12]
00000000: 584f 903d e8e5 27be f289 83be ad4b 1d3d
00000010: 436b 603e c815 28be b231 21be dfdc 47be
00000020: d9dd 043d e4a6 403d d017 33be 2086 3cbe
00000030: 1205 c83d 9008 d1bc e66c 9ebc 6385 a33e
00000040: c57e 903e 89e9 4abd 28ee 523d ba6b 2fbe
00000050: 8abb c13c 72dc e23c 3031 8b3e 4fbf 8cbe
00000060: 2870 3f3e 89f4 7fbe 80a2 5cbd 4883 df3d
00000070: a33b 8fbe 7806 1abe 1870 49be 177b 6bbe
00000080: 43e8 6cbe 5f59 85be 97e0 543d 76ef 82be
00000090: dc91 b7bd 5b9a 2cbe f9bd 2dbc 5bd7 103d
000000a0: 7ff5 873e 5b4f 0dbe d7ab 233d 4f85 6f3e
000000b0: 5162 91be 15ec 353e b198 d5be 40bb c63d
000000c0: b48f 1ebe 8ce8 e23d 985c eabd 9732 823c
000000d0: 03c1 493e 5662 523e 24a2 063d 58f0 5fbe
000000e0: cb96 d13d 13ba 213c 39eb 6bbe 126e 80be
000000f0: 5df4 a03e 40c6 b83d df6a 933e 8caf a3ba
00000100: c72d c03b a39b 35bd 6be3 c03d 55f4 2bbd
00000110: f3f0 eebd c340 543e a52f 093e 71ee 903d
00000120: c985 52be 3027 0fbd 55d1 4a3e 0824 93be
00000130: 8d5f 42bd cf3c 56be 45a1 49be 8e7e 9e3a
00000140: a9b7 77bd 2d03 21be b166 43be 3b5f 1e3e
00000150: 8e91 cc3c 1009 723e 44cd d13d 59e3 e13d
00000160: 9e61 953e 1eb3 18be 3fbc 7e3e 4bc7 823e
00000170: e688 3fbe f83f 0bbd 2701 3c3e e4c2 aabe
00000180: ada2 b43d a06b f2bc cc37 213d 3c6e b23d
00000190: a6b9 75be a3af 09be 6925 873e c9cd 10be
000001a0: 6a80 92be 57b8 03bc fd90 1d3e 46ad c83d
000001b0: 8298 46be 82c1 293e 6ad1 103e 4b3c 803e
000001c0: 8280 6bbe 0bc6 ddbe 9da0 f13d 9167 063e
000001d0: 855e bdbc 23fd 59be b739 74bd 26c6 4d3e
000001e0: 2a11 1a3e 13da 8dbe 9c7a 6ebd 941d 8c3e
000001f0: e3b5 2c3d 6b9d 85bd 9398 d43e 03f4 a63e
00000200: 0a81 3ebe e3e1 01be 3e8a c33e 509f 233e
00000210: 13cb 843e 125e 903e b02c edbd 6fc2 3e3e
00000220: debe 51bd e318 833e 488e e8bd 0727 803e
00000230: 9f86 ef3d 91ea 41be 7519 473e 46f0 5abe
00000240: 48b4 753e 346e 1b3e abb9 abbc 3607 463e
00000250: eea5 493c 0a9e b23e 7311 35bc 087a 453e
00000260: 1833 b8bd 9775 b73d 32c7 873d c4c5 31be
00000270: 945d ebbd c04e db3c 2d3f 973d c80b 21be
00000280: 3956 91be 2588 adbd 0966 373e bc65 4dbe
00000290: 2bbc 083e 3f7d 013e 44b3 80be 7482 783e
000002a0: 8dca 8d3b a00f 793d 5004 803e b872 b23d
000002b0: f9a2 333e c63b 953e 164a 6a3e eb53 95bd
000002c0: 79ef 05be 2f93 493e 907a 113e 7869 ad3d
000002d0: 4f1c c0bd 4c6e c03d 2114 0d3c 865f 9a3e
000002e0: fb5e 243d 0cf8 273e 1e6b f33d 66d4 f7bd
000002f0: 4984 c03d c335 aa3d 7f72 2d3d 2912 8a3d
00000300: bab6 463e 748f 153e 24ba 5d3e f620 99bd
00000310: d05f 6fbd 00ee f93b 2317 22be 901f 8cbd
00000320: 0070 2cba ea9a 91be 4620 29be 4018 d13c
00000330: a268 d2bd 2a01 583e 1a59 673d b452 88be
00000340: 9899 6ebe 1a72 51be 8062 32be 3463 f13c
00000350: d0ed 07be 61ec 48be 6ba0 653c 6047 693c
00000360: 1416 5abe f044 8e3e 4588 c03d b5b6 73bd
00000370: b912 62be dc54 573d 55d0 503e 062d 34bd
00000380: f8a1 633d fa9d 3abe 1e22 b33d f30f b4be
00000390: f8ba 783e 58d9 3f3e b22b da3d 9690 2c3e
000003a0: 1b42 c03e e11f 39bc c11f a6bd ef51 713e
000003b0: 8dd6 8e3e 18fa 88be a5cc 3c3e 1e5a c83c
000003c0: 49a8 703e f263 6fbe 5cb6 b23d 696a b93e
000003d0: 3dce 9e3e d5c5 99bc bc96 463e f933 96bc
000003e0: dfaa 053e e153 4bbe 30e9 633b 2e34 aebe
000003f0: c02e ac3e 40f3 4b3d 19a0 e63d 041a b43d
0.070463836 -0.16396296 -0.2569118 0.03840225 0.21915917 -0.16414559 -0.15741614 -0.1951785
0.032438133 0.04703416 -0.17489552 -0.1841054 0.09766592 -0.025516778 -0.019339036 0.31937703
0.28221717 -0.049539123 0.051496655 -0.17130938 0.023648996 0.027693007 0.27185965 -0.27489707
0.18695128 -0.24995627 -0.05386591 0.10913712 -0.27975187 -0.1504153 -0.19671667 -0.22996174
-0.23135476 -0.26044747 0.051971998 -0.2557332 -0.08963367 -0.16855757 -0.010604375 0.03536163
0.26554486 -0.13799803 0.0399588 0.23390697 -0.28395322 0.1776584 -0.41718057 0.09703684
-0.15484506 0.11079511 -0.11443442 0.015893264 0.19702534 0.20545325 0.032869473 -0.21869028
0.102338396 0.009871024 -0.23038949 -0.25083977 0.31436434 0.09022188 0.28792474 -0.001248823
0.005864832 -0.04433788 0.094183765 -0.04198106 -0.11667051 0.2072783 0.13397081 0.07076729
-0.20558847 -0.03494948 0.19806416 -0.28738427 -0.047454406 -0.20921634 -0.19690426 0.001209216
-0.060477886 -0.15723868 -0.19082142 0.15466015 0.02497175 0.2363627 0.102442294 0.11029691
0.29176039 -0.14912078 0.24876498 0.25542673 -0.18704566 -0.033996552 0.18359815 -0.33351815
0.088200904 -0.029592335 0.039359853 0.08712432 -0.239966 -0.13445906 0.2639573 -0.14141001
-0.28613597 -0.0080395555 0.1538734 0.09798674 -0.19394115 0.16577724 0.14142385 0.25046
-0.2299824 -0.43315157 0.11798213 0.13125445 -0.02311636 -0.2128797 -0.059625354 0.20095119
0.1504561 -0.2770544 -0.0582224 0.27366316 0.04216565 -0.06524166 0.41522655 0.3260804
-0.18603912 -0.12683825 0.38191408 0.15978742 0.25936183 0.2819677 -0.11580789 0.18628858
-0.051207416 0.25604925 -0.11355263 0.25029776 0.11695599 -0.18937136 0.19443305 -0.2138072
0.23994553 0.15178758 -0.020962557 0.19338688 0.012307627 0.348862 -0.0110515235 0.19284832
-0.0899412 0.08957975 0.0662979 -0.17360598 -0.11492458 0.02677095 0.07385097 -0.1572715
-0.28386095 -0.08473233 0.17910017 -0.2005834 0.1335303 0.12645434 -0.2513677 0.24268514
0.0043271245 0.060805917 0.2500329 0.08713287 0.17542638 0.29147166 0.22879824 -0.07291397
-0.13079633 0.19685052 0.1420691 0.08467382 -0.093803994 0.093960375 0.008610756 0.30151004
0.040129643 0.16403216 0.11885665 -0.12101059 0.094002314 0.083110355 0.04234552 0.06741745
0.19405642 0.14605504 0.21653038 -0.0747699 -0.058440983 0.0076272488 -0.15829138 -0.068419576
-0.00065779686 -0.28438503 -0.16516218 0.025524259 -0.102738634 0.21094194 0.05648146 -0.26625597
-0.23300779 -0.20453683 -0.17420387 0.029466249 -0.13274312 -0.19621421 0.014015297 0.0142382085
-0.21297485 0.2778697 0.09400991 -0.059500415 -0.22077455 0.052571163 0.20391972 -0.04398825
0.055574387 -0.18224326 0.08746742 -0.35168418 0.24290073 0.18735254 0.106528655 0.1685203
0.37550434 -0.011299104 -0.08111525 0.23566411 0.27898064 -0.26753306 0.1843744 0.024457034
0.23501696 -0.2337797 0.087261885 0.36213997 0.31016722 -0.018771091 0.19393438 -0.01833533
0.13053463 -0.19856216 0.0034776442 -0.34024185 0.33629417 0.04979253 0.11261005 0.087940246

linear1.bias f4 [256]
00000000: 2907 64be be42 e03e 670e febc 8fa0 d03d
00000010: 4945 a3be b5ac b43e c52a 4abc caac 483e
00000020: 9d50 cdbd 5c26 abbd 1c2f 083f 70de 013f
00000030: d18d a53e bae6 8fbe 72cf 513e 577f ae3e
00000040: 3e6f 4dbe e208 9f3d a499 b5bd 9ff8 1a3e
00000050: f91e ea3e 26bd d83e f196 d9bd 4782 083e
00000060: fca1 78be abec d73e c629 c83e de8d b23e
00000070: 6b79 1bbe 344b 023d 4b90 fb3e 4385 f93e
00000080: 0811 9b3d 1e56 90bd ddf9 31be d41e 8e3e
00000090: 685e d83e e11f 173e 796a 46bc 3d4f f43e
000000a0: 57be 0fbd 01a4 953e 65d0 79be 7716 2e3e
000000b0: 0d55 173e 9111 983e c251 0abe 5097 873e
000000c0: d482 cf3e d0f6 923e fed9 4b3e f561 c23e
000000d0: f05b ebbd ad6d 2ebe a679 45be cdf2 f43d
000000e0: 1c92 a03e 4860 5d3e a8d0 5c3e 5429 923e
000000f0: 6bdd 5b3e 1f58 6abe c38f 16be 3ebe 023f
00000100: 608e acbe 4639 67be 368d b93d 5cba 093f
00000110: 8e51 fe3e e24f 093f b59d 4bbe 14bf 203e
00000120: dd81 bb3e ae6f b5bc ba51 013e d3c3 dd3e
00000130: dc6a e83b f358 bf3e a4f9 133e 7ed4 73be
00000140: 936f 203e 255e 043f 7887 273d ea95 223d
00000150: 4a5e cb3e 2007 0c3b c36b c93e 9ce2 f1bd
00000160: 6039 0c3e cc2f a93e 6e7f c03e 8dcc dcbd
00000170: d97c ce3e 4832 f73e 81a9 dc3e 3d39 aabd
00000180: 0035 123f 8c46 2f3d 95f1 19be b426 d83e
00000190: 122b 5f3e efe1 f13e df2f 95be 7fbe c33c
000001a0: 418e a7be 8f32 adbb 2a47 34be 4fa3 dcbd
000001b0: ec89 a43e bfb6 b4bd b657 6e3e 2d2f f7bd
000001c0: b63c 02be 8487 c1bb 5610 283e ba55 4f3e
000001d0: a8a1 9c3e 38f4 753c ec6c 0b3f 78f4 1e3e
000001e0: 6502 ba3b 0805 f6bd 689d 213e 5cde ecbd
000001f0: 0a9f a3bc 973e b6bd 17b1 92be 03da e3bd
00000200: 45c3 f63d c9f3 0f3e 76d7 c53e 568b d33e
00000210: 69a3 06be 8abd 10be 8f4e febd 79de 9f3e
00000220: 571b 93be 27d2 da3e 4910 a83e 22f7 b0be
00000230: 92b2 7ebe 6891 ba3c 3e61 763e 3f4b 84be
00000240: 4907 0a3f 701a 063f 268c 573e 9cf9 a83e
00000250: 5313 8abe d3f3 8abe 8c68 953e 472b 5dbe
00000260: e5f9 cf3e f48e 8a3e 422b 113f 8e25 e13e
00000270: 8e43 fa3d ae68 81bd 298e ab3e d2bb 9dbd
00000280: b941 c13e fd4c 363e 9f33 4d3e bea7 4abe
00000290: 7b0b a63e 182a a6bc fdf6 d13e d8b0 3a3e
000002a0: 279c a73e b223 6cbe 4771 3f3e ae5e ef3d
000002b0: 32c7 403d 042a 45be 9f04 813d 1bcb 413e
000002c0: ef5e 5bbe 3bf7 d23e 5101 32bd fb1f a1bc
000002d0: fee8 0c3f 3e27 4fbe 4da9 7d3d 2b7b 233d
000002e0: ce74 4dbe ec36 eb3e 6601 013f 4ca8 dfbd
000002f0: 3e58 173f 7ed3 59be 5ced b63e 7ee2 02be
00000300: 9c0d f23d d148 0a3f 1157 66be 77ab 61bc
00000310: fdf6 4cbd e9d7 f5bd 8a5a 09be fa88 0a3f
00000320: 225b 57bc 2ba3 793e aa0a 343c d8ec 153e
00000330: fd79 113e 1a41 6ebe e87a 973d 70c1 f23e
00000340: eef0 7abe d2fa 4a3e c0d6 dd3e 9fc7 51be
00000350: 58a1 133e c86a 223e 8311 8b3e ad2c c53e
00000360: 8c39 c03d 79b4 163d 5260 d33d 49f1 373c
00000370: 6c98 8abd 42da ee3e 66cb 9d3e 56d3 e73e
00000380: a703 d23e 06cf 783e 01c8 43be c7d5 063e
00000390: ef26 143e c757 b73e d6de 8dbe 3b42 dcbd
000003a0: 1776 a53e 9272 0dbe ceb7 0e3f 7c1b a43e
000003b0: 836b 1dbc 8389 f33e 2ce9 39bd cbf3 003f
000003c0: b036 a63e d5d5 25be 1ded 58bd 5458 153f
000003d0: 0f6c 053f 6251 eb3e 0aae ee3d a75a f63e
000003e0: 580d 7ebe bb38 9fbe 3999 5f3e 9bd0 e43e
000003f0: 0678 103d d7be d9bd 6af8 cd3e c317 c03e
-0.22268356 0.4380092 -0.031012727 0.10186874 -0.31888798 0.35288015 -0.012339299 0.19597164
-0.100251414 -0.08356926 0.53196883 0.5073004 0.3233476 -0.28105718 0.2048929 0.34081528
-0.20061967 0.07765366 -0.08867195 0.15133904 0.45726755 0.4233181 -0.10624493 0.13330947
-0.24280542 0.4217275 0.3909437 0.3487386 -0.15183036 0.03181 0.49133524 0.48734483
0.07571608 -0.070476755 -0.17380472 0.27757895 0.42259526 0.14758255 -0.012110346 0.47716704
-0.03509363 0.29226688 -0.24395902 0.17000757 0.14778538 0.29700902 -0.1350775 0.2648263
0.405295 0.28703928 0.19907376 0.3796536 -0.11492145 -0.17034025 -0.19284686 0.11960373
0.31361473 0.2161876 0.21563971 0.28547156 0.21471183 -0.22885178 -0.14703278 0.51071537
-0.33702374 -0.22580442 0.09060137 0.53799987 0.49671596 0.53637516 -0.19884379 0.1569789
0.36622515 -0.02214798 0.12628832 0.43313465 0.0070928168 0.3737255 0.14450699 -0.23811528
0.15667562 0.51706153 0.040900677 0.03969375 0.39720374 0.0021366552 0.39340028 -0.118108004
0.13693762 0.3304428 0.3759722 -0.107812025 0.40329626 0.4828055 0.4309807 -0.083116986
0.5711212 0.042791888 -0.15033562 0.42217028 0.21793774 0.47242686 -0.29138085 0.023894547
-0.3272572 -0.005285568 -0.17605272 -0.10773336 0.32136476 -0.088239186 0.23275647 -0.12069545
-0.12718472 -0.0059060473 0.16412482 0.20247546 0.30592084 0.01501184 0.54463077 0.15522945
0.005676555 -0.120126784 0.15782702 -0.11565849 -0.019973297 -0.08898657 -0.28650734 -0.11125567
0.120489635 0.1405784 0.38640946 0.41317242 -0.13148274 -0.14134803 -0.124173276 0.3122442
-0.28731796 0.4273846 0.32824925 -0.34563547 -0.24872807 0.022774413 0.24060532 -0.25838658
0.53917366 0.5238409 0.21049556 0.33002937 -0.26967868 -0.27139148 0.29181325 -0.2159854
0.40620342 0.2706219 0.5670663 0.43973964 0.12219916 -0.06318794 0.33506897 -0.077018395
0.37745455 0.17802806 0.20039223 -0.19790551 0.32430634 -0.020283744 0.4100875 0.18231523
0.32736322 -0.23060492 0.18695556 0.116879806 0.047064967 -0.19254309 0.062997095 0.18925135
-0.21422933 0.41204247 -0.043458287 -0.01966857 0.5504302 -0.20229813 0.061929036 0.039912384
-0.20064089 0.4594034 0.5039276 -0.10920772 0.5911902 -0.21272084 0.35727966 -0.12781712
0.11819002 0.5401736 -0.2249415 -0.013773791 -0.050040234 -0.12004072 -0.13413444 0.5411526
-0.013144286 0.2437865 0.010988871 0.1464113 0.14206691 -0.23267022 0.073964894 0.47413206
-0.2450597 0.19822243 0.43327904 -0.20486306 0.14417017 0.15861046 0.27161798 0.38510647
0.09385976 0.036793206 0.10321106 0.01122696 -0.067673534 0.46650892 0.30819243 0.45278424
0.41018412 0.24297723 -0.19119264 0.13167487 0.14467977 0.35809156 -0.27709073 -0.1075482
0.32316658 -0.13813236 0.55749214 0.3205222 -0.009608152 0.4756585 -0.045388386 0.50372
0.32463598 -0.16194852 -0.052960504 0.58337903 0.5211801 0.45960528 0.11654289 0.48116037
-0.24809778 -0.3109797 0.21835794 0.44690403 0.035270713 -0.10632103 0.40228587 0.3751813

linear2.weight f4 [128, 256]
00000000: 09ff c9bc 53b6 ec3b 9ac9 513d 7e0a 9c3c
00000010: 1e8a 72bd aba0 53bd 50d6 b03b 8687 d63c
00000020: 364a 33bd 8225 23bd 8ba4 953c b47a 95bd
00000030: 1d42 773b ab7f 99bd f899 64bb 29f9 2cbd
00000040: 00bc 6fbc 60cb 8b3b 194c bbba 3fc1 e4bb
00000050: 9fac 6639 14b8 afbc 5f94 d83c e789 933c
00000060: 0b59 5a3d e7cd 353c 024e 923c d894 db3c
00000070: ac7c 243d 8713 353c 94e1 863c e397 0ebd
00000080: b0b0 c73c 801a 5c3d af7e 36bd f2c4 9cbc
00000090: 4d79 653d 6dcf 803c 8ac2 1abd 6b53 97bd
000000a0: 2c52 6abd 12d2 55bc 6a6a 243d cb93 41bd
000000b0: 6f2b 4d3d 439a 92bd 420b 91bc cd7c f03b
000000c0: bd7b 333d 7640 82bc 7afb 63bd 2b12 78bd
000000d0: a679 363d 6117 073c 38da 32bd b89f a43d
000000e0: f87f 2e3d ff94 a33c 6665 59bd 26a5 8cba
000000f0: e58c 78bc b61f 2a3c a6ea 0bbc 42b6 513c
00000100: abf7 2b3d 9d8b 4abd aa01 413d 6c40 58bd
00000110: 9ec8 4cbd 5ba0 a0bd 4bd9 c13c 841a f93c
00000120: 8de9 dc3b 0b03 52bd 2674 8cbc 1a21 39bd
00000130: b825 d2bc 460b 013d 680d a63c ba69 423d
00000140: 0493 7e3d c464 c63c 4029 923a f9d1 13bd
00000150: 287e b13c 2163 563c 8ec2 47bd 7015 dabc
00000160: 1d48 f7bc 35df a63d e5f3 d8bc 20ea c5bc
00000170: 753a 20bd ebfd 013d 1f83 19bb 3c5c 923d
00000180: dd9b cc3b ab87 4a3c c81c ffbc 06ae b1bd
00000190: e9ef aa3c 377f 7bbd 349d 6cbd 392f 6dbb
000001a0: 7b48 793b 0768 8b3d fb09 573d 98ca 1e3d
000001b0: 3840 abba 66ae 183d 4a8f 3d3d 6e66 35bd
000001c0: b002 5ebd 01fe 92bd b2cc e5bb 6567 8d3d
000001d0: af9b 303d c531 35bc 5b04 17bd 89ca 41bd
000001e0: b8aa 073d 627e 2abd 3090 623c 93c1 86ba
000001f0: c986 463c 3cec a03c 1fb4 853d 20dd 9ebc
00000200: 82a0 7a3c fe7f 03bd 0d07 f4bb 70e0 e1bb
00000210: e83d 8b3c 5d87 e33b 37fb c0b9 e923 b3bd
00000220: 8758 173d 288d 83bd c5e5 533d a627 49bc
00000230: b148 0e3d 3e3f b9bb 0460 ae3c 5cfa 9dbc
00000240: f7f6 a6bc d5f5 80bd 579e b33b 87cf ffbc
00000250: 18f8 65bc 5ee2 c53c 2fa7 abbc fc8c 843d
00000260: b704 22bd b156 5abd 67d8 29bc 4cb7 953c
00000270: fdd7 d3bc ca0f a4bc b54b bb3c 348b 0ebd
00000280: eef7 d1bc f0fd c2bb 26b4 6a3c 157b 553d
00000290: 9164 a6bb 9f69 7ebb c143 97bd 9d06 7d3c
000002a0: d4a0 0cbd a817 77bd 80e9 32bc 0278 afbd
000002b0: 4556 23bd 657e 223d 849c 8d3d 5c78 983c
000002c0: 1cd6 84bd c2f7 d93c 560f e93c 8e87 63ba
000002d0: 72e7 d93c a099 a53c 1f14 7e3c 1ea4 73bd
000002e0: c411 f7bc abc2 84bd b3d5 543c d005 683c
000002f0: ddc7 583c be4f 623d 9e18 b7bc 82c5 ea3c
00000300: 7b6a b2bc 8862 9d3c 7ae1 42bc 7e92 9cbc
00000310: c07f b9ba eb39 e43c 0aa2 f13c 16cf a4bc
00000320: 78c5 8cbc 3d11 81bd 7b7f 1f3d 4f88 8abc
00000330: 98ac 9cbd 84fd d83c 33c6 30ba 9f20 913c
00000340: d51e 04bc 45e4 13bc a9dc 9abd 6dc8 693d
00000350: 78fb b23c bf18 c1bc 28be 853c a963 8dbd
00000360: 5bed f53c 5510 73bd bf36 543b 478e 8cbc
00000370: 2a78 9fbc ac26 edbc c161 d63c 999d 00bc
00000380: f004 833c 8cc9 f23c a8e8 1bbc b1fb 7fbc
00000390: f7b9 38bc 6e7e 74bc 108e 593d 4877 b33c
000003a0: ce11 31bb 7baa 82bd c4f4 81bc b60c e73c
000003b0: c20a 3a3c 5518 0dbc f825 febc 7b51 51bd
000003c0: dc7b 0b3a bcbc 733d 8467 22bd 00f3 6e3c
000003d0: 47fe 003d 58b4 15bd 50f9 71bd 33e5 1e3d
000003e0: d800 0dbc 6861 6c3d f2d5 503d 65f9 4cbd
000003f0: 177f c9bb 7cbb 113d 3730 ae3c c047 3e3d
-0.024657743 0.007223883 0.051217653 0.019047972 -0.05921375 -0.051666897 0.005396642 0.02618767
-0.043771945 -0.039830692 0.018266937 -0.072987944 0.0037728616 -0.07495054 -0.0034881812 -0.042229805
-0.014632225 0.0042661875 -0.0014289647 -0.0069810445 0.00021998816 -0.02145008 0.026437936 0.018010093
0.053307574 0.011096454 0.017859463 0.026804373 0.04015796 0.011052019 0.016464986 -0.03481282
0.024376243 0.05373621 -0.04455441 -0.01913688 0.056023885 0.015723908 -0.037783183 -0.073889576
-0.05720727 -0.013050573 0.040140547 -0.047260087 0.05009025 -0.07158329 -0.017705563 0.007339096
0.043819178 -0.015899878 -0.05565975 -0.0605642 0.044549607 0.00824532 -0.04366514 0.080382764
0.04260251 0.019968508 -0.053075217 -0.001073037 -0.015170311 0.010383537 -0.008539831 0.012799801
0.04198424 -0.04944955 0.047120728 -0.052795812 -0.04999601 -0.078430854 0.023663184 0.030408151
0.0067417086 -0.051272433 -0.017145228 -0.045197584 -0.025652751 0.03150489 0.020270064 0.04746411
0.062151924 0.02421797 0.001115121 -0.036088917 0.021666601 0.013085158 -0.048769526 -0.02662155
-0.030185753 0.08148042 -0.026483485 -0.024159491 -0.03911825 0.031736296 -0.0023424102 0.071464986
0.0062441663 0.012361447 -0.031141654 -0.086757705 0.020866351 -0.06140062 -0.057767108 -0.0036191477
0.0038037586 0.06806951 0.052499752 0.038767427 -0.0013065403 0.037275694 0.04627923 -0.044287138
-0.05420178 -0.07177354 -0.007012927 0.069044866 0.04311722 -0.011059229 -0.036869388 -0.047312293
0.033121794 -0.041624434 0.013828322 -0.0010281078 0.012117096 0.019643895 0.06528496 -0.01939255
0.015297057 -0.032104485 -0.0074471296 -0.00689321 0.016997293 0.006943627 -0.00036808263 -0.08747084
0.03694966 -0.06423408 0.051732797 -0.012277519 0.034737293 -0.005653291 0.021286018 -0.01928442
-0.020381434 -0.06296889 0.005481522 -0.031226886 -0.014036201 0.024155792 -0.020953743 0.06472203
-0.039555278 -0.05330533 -0.010366536 0.01827588 -0.025859827 -0.02002706 0.022863248 -0.034800723
-0.025630917 -0.005950682 0.014325177 0.052119333 -0.0050779064 -0.003882028 -0.0738597 0.015443471
-0.034333065 -0.060325295 -0.010919929 -0.085678115 -0.039877195 0.03967132 0.069146186 0.01861208
-0.064861506 0.026607398 0.028449696 -0.0008679562 0.02659962 0.020214856 0.015507727 -0.059482686
-0.030159838 -0.064824425 0.012990403 0.014161542 0.013231245 0.05525183 -0.022350606 0.028658632
-0.02177929 0.019212022 -0.011894578 -0.019112822 -0.0014152452 0.027859649 0.029496212 -0.020118278
-0.017184004 -0.06302116 0.038939934 -0.0169107 -0.07650107 0.026488073 -0.0006743401 0.01771575
-0.008063992 -0.009026592 -0.07561619 0.057075907 0.021848425 -0.02357137 0.016326025 -0.06903774
0.030020406 -0.059341747 0.0032381264 -0.017157687 -0.019466478 -0.028949104 0.02616966 -0.007850074
0.015993565 0.02963712 -0.009515919 -0.015623973 -0.011274806 -0.014922721 0.053113997 0.021907464
-0.002701867 -0.06380173 -0.015863784 0.028204303 0.011355104 -0.008611758 -0.031023964 -0.051103096
0.00053208857 0.059506163 -0.0396495 0.014584303 0.031492498 -0.036548942 -0.059075654 0.0387928
-0.008606158 0.05771008 0.050985284 -0.05004253 -0.0061491835 0.03557919 0.021263225 0.046455145

linear2.bias f4 [128]
00000000: 9ccb c93b 5aad d2bc 15a6 d93c 66b1 aebd
00000010: 892a 7f3c 606c ebbb 2215 f6bc c78e 583c
00000020: e1ff fd3c c209 e73b 8f4c 51bb a0a2 553e
00000030: 2651 2bbd 2095 9f3e fdb2 bbbc cc00 f1bc
00000040: cff3 7ebd 5aab 9abd c30a 583c 8548 e6bc
00000050: 7f8a 3dbd 55cf 6e3b facd 99bd e2bf 8bbd
00000060: ee46 b1bb ba67 3a3d 996f 393d 0785 873e
00000070: f3c3 343c 19b7 653b 64af 3ebd 96c0 0fbd
00000080: 5f1a 44bd ecd7 0c3d a167 3a3d 25d6 823e
00000090: 2b14 6f3d 9cbb 9e3c e06c c0bd 89e8 85bd
000000a0: 7fd2 893e 33cc 1fbd 97d2 85bd 9cd0 193d
000000b0: fa3c 693e 12e2 88bc 9fe3 5fbd 201b 1dbc
000000c0: e741 c13e f865 fd3c 7b43 08bc cc5d 7abd
000000d0: 645d 2f3e 1c7a b5bc 225c 063e 21bc f53d
000000e0: 6a3c 663e 88aa 48bd 3d86 31bd de03 5e3e
000000f0: 79bf 7cbd d342 31bd 4ece d73b 2173 31bd
00000100: e4a2 823d 72b5 8f3e 76c6 353d a588 443e
00000110: f56b 56bd 2402 32bd aef7 e33d 4865 c83c
00000120: 80a3 b3bd 5c4b 16bd 3305 85bd 6aab ccbc
00000130: 18fd 91bc 7897 62bd b4f7 81bd b94b 64bc
00000140: 2423 7e3e 092e 59bc b266 7fbd e06a 82bc
00000150: d27e 413c 55bd 0ebd 0ae2 7abd af62 1c3e
00000160: 70ed 083d fdc6 74bc 8792 9dbd 2f29 9c3e
00000170: 524e ba3c 048c 4cbc 27ed 48bd 03fc 563d
00000180: 2b86 243d 0c5b 34bd 61f6 3f3d b3dd 373d
00000190: 90fd 35bd 3855 6b3c 053a 55bd 21b6 70bc
000001a0: 314c a93e c177 d7bb c7f9 8f3e 2915 89bd
000001b0: eb53 04bd fe81 633c fd5d ce3d 80e9 b23e
000001c0: d042 563d befb 443d 9f73 243c e98b 12bc
000001d0: beb6 a43e 52a0 5dbc 0a83 7ebc 5c9f 01bd
000001e0: 5567 7cbd 0933 ebbb 0c9d 853e b4b9 7fbc
000001f0: 9e22 2d3d 801b 82bc a237 bf3e 6a3f 903e
0.0061583053 -0.025717426 0.026568452 -0.0852993 0.015574106 -0.00718455 -0.030039374 0.0132176345
0.031005802 0.007050724 -0.0031936502 0.20862818 -0.041825436 0.3116846 -0.022912497 -0.029419325
-0.062244233 -0.07552214 0.01318616 -0.028110752 -0.04627466 0.0036439497 -0.0750999 -0.06823708
-0.005410067 0.045509078 0.045272443 0.2646868 0.011033046 0.0035051762 -0.046553984 -0.035095774
-0.047876712 0.034385607 0.045508984 0.25554004 0.058368843 0.019376568 -0.09395766 -0.06538493
0.26918408 -0.0390131 -0.065343075 0.03755246 0.22777167 -0.016709361 -0.054660436 -0.009588987
0.37745592 0.030932412 -0.00831687 -0.061124608 0.1712547 -0.022152953 0.13121083 0.11998773
0.22483984 -0.048990756 -0.04334091 0.21681163 -0.06170604 -0.04327662 0.0065858727 -0.043322686
0.06378725 0.2806812 0.04437872 0.19192751 -0.05234905 -0.043459073 0.111312255 0.024462357
-0.087714195 -0.036692962 -0.06495132 -0.02498408 -0.01782088 -0.055320233 -0.06346074 -0.013934069
0.24818093 -0.013255605 -0.062353797 -0.015920103 0.0118100215 -0.03484853 -0.061250724 0.1527202
0.033429563 -0.014940021 -0.076939635 0.3050017 0.022742424 -0.012484554 -0.04905429 0.05248643
0.040167015 -0.04403214 0.046865825 0.044889163 -0.04443127 0.014363579 -0.052057285 -0.01469186
0.33065942 -0.006575555 0.28120252 -0.06693489 -0.032306593 0.013885973 0.100765206 0.3494377
0.05230981 0.048091643 0.010037332 -0.00894449 0.3217067 -0.013526993 -0.015534172 -0.031646118
-0.061621983 -0.0071777147 0.2609638 -0.01560824 0.04226934 -0.015882254 0.37347132 0.2817338

linear3.weight f4 [3, 128]
00000000: bb72 473d 34fd 713d 56b9 683c 3688 81bd
00000010: 9f6e 203d d05b 84bd 5517 11bc 994b 53bd
00000020: a3b3 cc3c 8db3 803d fef3 503d 55fb d3bd
00000030: c2fd 75bd 7353 4fbe c5f3 b9bd ed51 1b3d
00000040: 29d5 42bc 38e8 9abd ae9a b13c f8f9 a7bd
00000050: 0f9f 793d 7c8b 893d 813a 7abd 8181 073c
00000060: 164d 2e3c 24e7 73bb 1a7d 9c3c 8f56 1bbe
00000070: a01f 21bc 55a2 ba3b 9509 a8bd c0fa d2bb
00000080: 4938 6bbd 5cbf 68bd e819 033c c1de 11be
00000090: 1388 51bd 20d2 5fbd 6563 ccba 2ed8 083d
000000a0: 4b50 f5bd 1f9d 903d 417c 1d3d 3c70 f33c
000000b0: 5375 33be 8723 9cbd fe04 e4bc 9f4b 993d
000000c0: 36a9 25be e621 3d3d 79a5 88bc abf0 8bbc
000000d0: c469 43bd 74dd f4bc d5f3 09be 350a 1dbd
000000e0: d6de 953d 0c05 dabd 2c74 7e3c ad66 b0bb
000000f0: a8f0 d63c 2169 abbd aef2 91bd 53d5 9b3d
00000100: a46d 8ebd 7895 36be 63f6 e5bb 4621 50be
00000110: f0b1 ecbb 4055 e53b 2bc1 f6bd d16f 49bd
00000120: 6612 373d a461 643d baaa bc3b 422b 7d3d
00000130: ef81 9a3d 5773 ff3c eec9 483d 8acb 9c3c
00000140: 29bd babd e4b8 77bb f9d0 623d 74e7 86bd
00000150: 10c3 eabc 7b16 c1bc a336 84be 7413 25be
00000160: 9122 11be b808 343c a04b 0d3d ece5 0ebe
00000170: 28c3 5e3c a2a3 203d bfa2 33be a83b f8bd
00000180: a519 acbb 8b4b b238 2128 083c 53b2 b03c
00000190: fee5 5fbd a2db 5b3d b908 9f3b 5c90 dbbc
000001a0: aad0 b93c f9db 99bd c6a7 1dbe 7180 1d3d
000001b0: 11ab d43c 190e 71bc c1c5 f7bd eb11 ffbd
000001c0: eaf0 4bbd 45a0 62bd bd8a 8fbd f8da 733c
000001d0: 7a76 0cbe fa8b b9bd 24d4 42bc bcbb 80bd
000001e0: 26b4 dabc 47f2 bebd c58a 05be c311 8a3d
000001f0: 4ae9 543c c016 f7bb bcd5 19be bca4 f4bd
00000200: 7d5c 563d 0d27 cc3c c172 10bd d8b8 743d
00000210: d150 59bd 8a8e edbc 96e6 d73d 5bd1 b33d
00000220: c704 8b3d aa23 743d 2c3d 5c3d c1df c7bd
00000230: 8008 cfbc c5d7 bbbd 1c2a 0f3d 4b9f a0bb
00000240: 4be4 6e3c a5d1 35bc d05f e8bb 0c86 8f3d
00000250: 1f63 013d 6839 40bd 3a52 4e3d d665 a03d
00000260: 2d04 873c 8fae 043c 8331 5dbc 5756 d1bd
00000270: 12e9 b73c 613b d83c b700 1fbb 4624 883c
00000280: 5393 3ebb deb4 453d d245 303d 49d4 17be
00000290: 71e8 3b3e ab07 43bd e5dd 9dbc 4d78 ec3c
000002a0: f670 e6bd 6265 193c b940 5a3d 5f8d 633c
000002b0: a1c3 ccbd 0fe7 023d 79ff 64bd 93b1 993c
000002c0: d43a 2fbe 07f8 69bb 7172 983d 8ca3 4f3d
000002d0: e73e bdbd e679 7b3d 0494 16bd 838f 20bd
000002e0: 335f f5bc 8692 913b 27f1 98bd 0205 e7bd
000002f0: 057f 80bc cc6d 593c 3fc9 54bc 1dda 04bd
00000300: 8a49 133e 836d 16be e575 2b3d 31de 87bd
00000310: d71a 01bd c8b8 003d 9cb3 b4bc b095 efbc
00000320: 1d8a 733a 1355 653d f7fc 94bd c8bc 2dbc
00000330: 0cf4 9ebc b3e0 66bd ea4c 063d c98f a03d
00000340: 2f13 bfbd a564 8abc f0e3 3fbb 5f03 13bd
00000350: 9f36 173c 800c 16b9 f26c 073e af66 bfbc
00000360: 0557 023e ebdc febc ab24 d7bc 6883 87bd
00000370: 94bb 0e3d 0385 053c eb33 0f3e 896d d4bc
00000380: 509f f0bc 41f5 7ebd b921 373c d645 4d39
00000390: 2445 f1ba 0023 56bb c01e d33b 5d4c 3bbd
000003a0: 421c e33d b3b3 6fbd 909c 16be 4f6a 24bd
000003b0: 0109 113d c51e 273d d713 d9bc 16f2 2cbe
000003c0: 053b 09bd 34a2 123c 3c1e 93b8 e9c2 19bd
000003d0: 15e2 0fbe c43f 9b3c b9f0 8d3d d2de 8fbd
000003e0: a0ed 6fbc a6c6 dd3b be88 15be 2c28 0bbd
000003f0: 1558 4fbb 5486 f83c 9278 0cbe 50c8 08be
0.0486934 0.059079364 0.014204344 -0.06324808 0.039167996 -0.06462824 -0.00885566 -0.051585767
0.024988001 0.062842466 0.05101394 -0.10350672 -0.060056455 -0.20246677 -0.090796985 0.037919927
-0.011891642 -0.075638235 0.021680202 -0.08201975 0.060942706 0.06716058 -0.06109095 0.008270622
0.010638496 -0.0037216628 0.019102622 -0.15169738 -0.0098342 0.005695621 -0.082049526 -0.006438583
-0.057426725 -0.05682312 0.008001782 -0.1424513 -0.05115516 -0.05464375 -0.0015593587 0.03340929
-0.11978205 0.070612185 0.038448576 0.029716603 -0.17525224 -0.07623964 -0.027834412 0.07485127
-0.1617783 0.046174906 -0.016680466 -0.017082533 -0.047708288 -0.029890753 -0.13471921 -0.038339812
0.07317893 -0.10645494 0.015530627 -0.0053833337 0.0262378 -0.08369661 -0.071263656 0.07609048
-0.06954506 -0.17830455 -0.007017897 -0.20325193 -0.0072233602 0.006998688 -0.120485626 -0.049178902
0.04469528 0.05575718 0.005757657 0.061808832 0.07544314 0.031182928 0.0490207 0.019140024
-0.09118111 -0.0037799412 0.055375073 -0.06587115 -0.028657466 -0.02357029 -0.25822935 -0.16120702
-0.14173342 0.010988407 0.03449595 -0.13954896 0.013596334 0.039218552 -0.17542551 -0.121207535
-0.0052520805 8.5017724e-05 0.008310349 0.021569407 -0.054662697 0.053676255 0.0048533347 -0.026802234
0.022682507 -0.075126596 -0.15396032 0.03845257 0.025960477 -0.014712834 -0.120982654 -0.124545895
-0.0497903 -0.055328626 -0.07008884 0.014883749 -0.1371707 -0.090599015 -0.011891399 -0.062858075
-0.02669723 -0.093235545 -0.13041218 0.06741669 0.012995074 -0.007540554 -0.1502294 -0.11945483
0.052334297 0.024920965 -0.035265688 0.059746593 -0.05305559 -0.028998632 0.10542028 0.08780166
0.067880206 0.059604324 0.053769276 -0.097594745 -0.025272608 -0.09172014 0.034952268 -0.0049018017
0.0145807965 -0.011097346 -0.0070915 0.07007989 0.03158867 -0.046929747 0.050371386 0.07831924
0.016481483 0.008098259 -0.013500574 -0.10221546 0.022450004 0.026395502 -0.00242619 0.016618859
-0.0029079511 0.04826819 0.043035336 -0.14827074 0.18350388 -0.047614735 -0.019270847 0.028865958
-0.11252014 0.00936255 0.05328438 0.013888686 -0.09998251 0.031958636 -0.0559077 0.018761432
-0.17112285 -0.0035700814 0.07443703 0.05069308 -0.09240513 0.06139555 -0.036762252 -0.039199363
-0.029952621 0.004442516 -0.07467871 -0.11280252 -0.015685568 0.0132708065 -0.012987434 -0.03243457
0.14383522 -0.14690213 0.04186048 -0.066341765 -0.031519737 0.03142622 -0.0220583 -0.029246181
0.0009290295 0.055989336 -0.07274812 -0.010604091 -0.01940348 -0.056366634 0.032788195 0.07839925
-0.09329831 -0.016893694 -0.0029280148 -0.035891887 0.009229331 -0.00014309771 0.13225153 -0.023364393
0.12728508 -0.031111201 -0.026262602 -0.06616861 0.034846857 0.008149388 0.13984649 -0.025931137
-0.029372841 -0.06224561 0.011177474 0.0001957634 -0.0018407446 -0.003267467 0.0064428747 -0.045727123
0.11089374 -0.058520984 -0.14708161 -0.040140446 0.035408977 0.04080083 -0.026498718 -0.16889223
-0.03350355 0.008949805 -7.015138e-05 -0.037539396 -0.14051087 0.018951304 0.0693068 -0.070249215
-0.014644057 0.0067680655 -0.14602944 -0.033973858 -0.0031638194 0.03033749 -0.13717869 -0.13357663

linear3.bias f4 [3]
00000000: 1dd2 1fbe 3169 37be b835 7dbd
-0.15607496 -0.17911221 -0.06181881
