model/SnakePaca_78.pth (torch, 17823 bytes, 4 tensors)

linear1.weight f4 [256, 12]
0	0xbf17f6f6	-0.5936121
1	0xbf6b8019	-0.91992337
2	0x3e349c49	0.17637743
3	0x3f33bbc1	0.70208365
4	0xbe22935a	-0.15876523
5	0x3f24b0fb	0.6433255
6	0xbd8cafab	-0.068694435
7	0xbedb7cb9	-0.42868593
8	0x3ebe0bdf	0.37118432
9	0xbf779d8d	-0.9672478
10	0x3d8a78a9	0.06761295
11	0xbd332ca8	-0.04374376
12	0x3e5794de	0.21052882
13	0x3dc312aa	0.09525044
14	0x3e90cc18	0.2828071
15	0xbef6f92c	-0.48236978
16	0xbf06e02c	-0.5268581
17	0xbf10e594	-0.5660031
18	0xbed48bbf	-0.41512868
19	0xbe6834c1	-0.22676374
20	0xbd8ead1b	-0.06966611
21	0xbd0becfc	-0.034161553
22	0x3e2b2943	0.16714959
23	0x3e305b97	0.17222439
24	0x3dba38ee	0.0909289
25	0x3de187a4	0.110121995
26	0x3e8ad508	0.27115655
27	0x3d95435b	0.07288238
28	0x3c7da377	0.015480868
29	0x3d71021a	0.058839895
30	0xbe46e608	-0.19423687
31	0xbec8bbec	-0.39205873
32	0xbde6081c	-0.112320155
33	0xbe0a1d4a	-0.13487735
34	0xbe7a2b96	-0.24430689
35	0xbd103a88	-0.03521207
36	0x3deaf636	0.11472742
37	0x3dba9901	0.091112144
38	0xbf6554f1	-0.89582735
39	0x3e7505b2	0.23927954
40	0xbf28b5ab	-0.65902203
41	0xbf245441	-0.6419106
42	0xbe243339	-0.16035165
43	0xbf2802de	-0.65629375
44	0xbf563bbb	-0.8368489
45	0xbf456175	-0.7710183
46	0xbc9c1435	-0.019052604
47	0xbdd3372a	-0.10313256
48	0x3f1f92f1	0.6233359
49	0x3ca48183	0.020081287
50	0xbf1451b4	-0.5793717
51	0xbf260e89	-0.6486593
52	0x3f15146b	0.5823428
53	0xbedc5bdd	-0.43038836
54	0xbed92d09	-0.42417172
55	0xbf909ce0	-1.1297874
56	0xbe470cc9	-0.19438471
57	0xbeb7c472	-0.35892063
58	0xbeb3cbf0	-0.3511653
59	0xbd9bc812	-0.0760652
60	0xbe8859f3	-0.26631126
61	0x3e3c108a	0.18365684
62	0xbf81eb10	-1.014986
63	0xbeb17d66	-0.34665984
64	0xbdff89dd	-0.12477467
65	0x3f2a0c19	0.6642471
66	0xbf3e5991	-0.7435542
67	0xbf6c9d9b	-0.92427987
68	0xbf66d322	-0.90165913
69	0xbf030b32	-0.5118896
70	0x3e9590ab	0.29211935
71	0xbe1aae7b	-0.15105622
72	0xbeeaa8fe	-0.45832056
73	0xbe0132b7	-0.12617002
74	0xbeacd4f4	-0.3375622
75	0xbf00fbb2	-0.50384057
76	0x3ecfc9a4	0.40583527
77	0xbe9768d9	-0.2957218
78	0x3f1a2afb	0.60221833
79	0x3e817168	0.25281835
80	0xbf11fde9	-0.5702806
81	0xbec059c1	-0.37568477
82	0xbf40bd81	-0.7528916
83	0x3e1593f4	0.14607221
84	0x3ea6ea15	0.32600465
85	0x3ed8495f	0.42243478
86	0xbf9464eb	-1.1593298
87	0x3c8cf760	0.017207801
88	0x3b5a5003	0.003331185
89	0x3e2150ef	0.1575353
90	0x3e328147	0.17432128
91	0x3bd77e6d	0.0065763504
92	0xbe32f21a	-0.17475167
93	0xbf234f2b	-0.63792676
94	0xbf02ca72	-0.5109016
95	0xbe7c4967	-0.24637376
96	0x3ee8618c	0.45386922
97	0xbf8fa881	-1.1223298
98	0xbf667064	-0.90015244
99	0xbfb4179e	-1.4069707
100	0x3f54520e	0.82937706
101	0xbf360d53	-0.7111408
102	0xbea53faf	-0.3227515
103	0xbfc8a9bf	-1.5676802
104	0x3f016587	0.50545543
105	0xbf76cf1c	-0.96409774
106	0xbf1d1573	-0.61360854
107	0x3f1d3feb	0.61425656
108	0xbda7c755	-0.081923164
109	0xbfad939d	-1.3560673
110	0x3dcd8a9c	0.10036203
111	0xbf34adeb	-0.7057788
112	0x3baec560	0.0053335875
113	0xbf9e28c1	-1.2356187
114	0xbe0f231b	-0.13978235
115	0xbf72d22c	-0.94851947
116	0xbf28343d	-0.6570471
117	0xbf9dad19	-1.231845
118	0x3eacd8d5	0.3375918
119	0x3ebd521c	0.36976707
120	0xbe512c09	-0.20426954
121	0x3d0e8232	0.034792133
122	0xbe3a57f8	-0.1819762
123	0x3e34b3b3	0.17646675
124	0x3e397752	0.18111923
125	0xbf3c5f50	-0.73582935
126	0x3dac2f8f	0.084075086
127	0xbf134658	-0.5752921
128	0xbf234c0e	-0.63787925
129	0xbf7ee84f	-0.99573225
130	0xbed081e6	-0.40724105
131	0xbe69a93f	-0.22818469
132	0xbe6b0c41	-0.22953893
133	0xbe278057	-0.16357552
134	0x3e027d16	0.12743029
135	0xbf0a96da	-0.5413643
136	0x3e8d61cd	0.2761368
137	0x3e4d6471	0.20057847
138	0xbe529c35	-0.20567401
139	0xbe4afc82	-0.19822887
140	0xbe9b84ae	-0.30374664
141	0xbe8591b4	-0.26087725
142	0xbea18bd1	-0.31551984
143	0xbf0c451e	-0.54792964
144	0xbf34790e	-0.70497215
145	0x3ead9e84	0.3391
146	0x3ed892f9	0.4229963
147	0x3e0a9f1a	0.13537255
148	0x3e333fa4	0.17504746
149	0xbe8c18f5	-0.2736279
150	0xbea9f462	-0.33194262
151	0xbf63d066	-0.88989866
152	0xbf5d9290	-0.8655176
153	0xbcec1a71	-0.028821202
154	0x3e259df3	0.16173534
155	0xbe1d1f97	-0.15344082
156	0xbe25f978	-0.16208446
157	0x3dfa50e9	0.12222464
158	0x3e468f17	0.19390522
159	0xbed1d1d6	-0.40980405
160	0x3f0eb296	0.5574125
161	0x3f0613dd	0.5237406
162	0xbf2187a2	-0.63097584
163	0xbfa1d596	-1.2643306
164	0xbf830cdf	-1.0238303
165	0xbed63986	-0.41840762
166	0x3f0e189d	0.55506307
167	0xbdf5a68f	-0.11994659
168	0xbfbde021	-1.4834024
169	0x3e8c24e8	0.27371907
170	0xbf874627	-1.0568284
171	0x3f619ad1	0.88126856
172	0xbf4de608	-0.80429125
173	0xbf286cad	-0.65790826
174	0xbf5dad35	-0.8659242
175	0xbf1f9799	-0.62340695
176	0x3f7f1e69	0.9965578
177	0xbfd47416	-1.6597927
178	0xbfe32575	-1.7745806
179	0xbe6cc980	-0.23123741
180	0x3bad75aa	0.0052935677
181	0xbe1e9761	-0.15487434
182	0xbcfc9a9f	-0.030835448
183	0xbe93a5a4	-0.2883731
184	0xbdb5ed2c	-0.088831276
185	0xbe612975	-0.21988471
186	0xbc71a2d4	-0.014748294
187	0xbd8b5e25	-0.06805066
188	0xbe937f08	-0.28807855
189	0x3e69670f	0.2279322
190	0x3e05bb07	0.13059627
191	0xbea81929	-0.32831696
192	0x3cfbd699	0.030741977
193	0x3e04e1ce	0.12976763
194	0x3f0d4174	0.55178
195	0xbf64d04f	-0.89380354
196	0xbe85ecbf	-0.26157185
197	0xbd9ca1d3	-0.07648053
198	0xbcb001cf	-0.021485237
199	0x3df21f51	0.118223794
200	0xbe6c4463	-0.23072962
201	0xbf51bdfd	-0.81930524
202	0xbf48faef	-0.78507894
203	0xbe9c0ba0	-0.3047762
204	0x3f066b01	0.52507025
205	0x3f863fef	1.0488261
206	0x3f8bbe02	1.0917361
207	0xbe1d157e	-0.1534023
208	0xbf1eb25a	-0.6199089
209	0xbeda1018	-0.42590404
210	0xbf3610e8	-0.71119547
211	0xbeed0a6a	-0.46297008
212	0xbef8c943	-0.4859105
213	0xbdb298e8	-0.08720571
214	0x3db0aa07	0.0862618
215	0x3e81d326	0.25356406
216	0xbe557028	-0.20843565
217	0xbccc4414	-0.024934806
218	0xbe4665a6	-0.19374713
219	0x3db1ea93	0.086873196
220	0xbdda161c	-0.10648748
221	0xbdfd71c2	-0.12375213
222	0xbdca0e99	-0.098660655
223	0xbdcfabec	-0.10140213
224	0xbc5357d5	-0.012899359
225	0x3d0e0283	0.034670364
226	0xbe6212d8	-0.22077501
227	0x3d6bad75	0.05753847
228	0x3e7387db	0.23782293
229	0x3f3b4206	0.7314762
230	0x3e90ef07	0.28307363
231	0xbef69d35	-0.48166814
232	0xbebafbdf	-0.36520287
233	0xbea1ab57	-0.31576034
234	0x3dce0f9b	0.1006157
235	0x3e9ed779	0.31023768
236	0x3ddc045e	0.107430205
237	0xbe24f700	-0.16109848
238	0x3eba42db	0.36379132
239	0xbddbd38e	-0.1073371
240	0xbf3a847b	-0.728584
241	0x3e92cd7e	0.28672403
242	0x3e025ae9	0.12729992
243	0xbe9ca6b1	-0.30595925
244	0x3d7d6f76	0.061873876
245	0xbef1ef17	-0.47252724
246	0xbe303f0b	-0.17211549
247	0xbf2817a7	-0.6566109
248	0xbe377af0	-0.1791799
249	0xbe129ac6	-0.14316854
250	0x3e5d1e78	0.21593654
251	0xbe696b64	-0.22794873
252	0xbf21a048	-0.63135195
253	0x3edd57b6	0.4323098
254	0x3ef9da7f	0.48799512
255	0xbf273d85	-0.65328246

linear1.bias f4 [256]
0	0xbe9594dc	-0.29215133
1	0xbee2eab3	-0.44319686
2	0xbf12b5ec	-0.5730884
3	0x3e587a82	0.21140483
4	0xbde38c8c	-0.111107916
5	0xbdf7859b	-0.1208603
6	0x3e20bde4	0.15697438
7	0xbe8e8254	-0.27833807
8	0x3e4310bb	0.19049351
9	0x3e395c6d	0.18101664
10	0x3f07239d	0.52788717
11	0xbe8d4266	-0.2758972
12	0xbebdb6d6	-0.37053555
13	0xbe6810e5	-0.22662695
14	0xbe618046	-0.22021589
15	0xbe8517a7	-0.25994608
16	0xbe0d3449	-0.13789476
17	0xbf059ea7	-0.5219521
18	0xbe9d03f9	-0.30667093
19	0xbfa016f3	-1.2507004
20	0xbe5285de	-0.20558879
21	0x3ef73892	0.48285347
22	0x3f3e4420	0.743227
23	0xbe794ab8	-0.24344909
24	0xbe9e3d44	-0.30906117
25	0xbe7811f6	-0.24225602
26	0xbe90d79b	-0.28289494
27	0xbf139bac	-0.5765941
28	0x3ec9c634	0.3940903
29	0xbee68eb9	-0.45030764
30	0xbdd93bdf	-0.10607123
31	0xbeea0337	-0.45705578
32	0x3e0441b5	0.1291569
33	0x3e8dd70e	0.27703136
34	0xbf046315	-0.5171369
35	0x3e3931e9	0.18085445
36	0xbe1ed1c7	-0.15509711
37	0xbe5a314f	-0.21307872
38	0xbef2d971	-0.4743152
39	0xbf47da60	-0.7806759
40	0xbef48721	-0.47759345
41	0xbe7a57b3	-0.24447517
42	0xbeed4ea6	-0.46349066
43	0xbf2a71d8	-0.6657996
44	0xbf17281e	-0.5904559
45	0x3dfd81c4	0.123782665
46	0xbe36d4d3	-0.17854623
47	0xbf2d07ed	-0.6759022
48	0xbf9399c4	-1.15313
49	0xbf6c378a	-0.92272246
50	0xbe95955d	-0.29215518
51	0x3fddecd7	1.7337903
52	0xbe5dd015	-0.21661408
53	0xbeb1e486	-0.34744662
54	0xbe762c94	-0.24040443
55	0xbe8b00fe	-0.27149194
56	0xbe796b18	-0.2435726
57	0xbf25e0d9	-0.64796215
58	0xbeb98ab0	-0.36238623
59	0x3f45d8f2	0.7728416
60	0x3e47bf82	0.19506648
61	0x3ef04231	0.469255
62	0xbe696b6f	-0.22794889
63	0x3eb51628	0.35368466
64	0x3d650cd6	0.055920444
65	0xbeba4ba6	-0.3638584
66	0x3d86ccdc	0.065820426
67	0xbf3fca9c	-0.7491853
68	0xbf37ab28	-0.7174554
69	0xbe8eb955	-0.27875772
70	0xbc4d3c94	-0.01252665
71	0xbf5fbe70	-0.8739996
72	0xbeadc58a	-0.33939773
73	0xbea6e1ac	-0.3259405
74	0xbec99cf5	-0.3937756
75	0x3f0cc332	0.54985344
76	0x3e0b5255	0.13605626
77	0xbf182b41	-0.59441
78	0x3ecd6a4f	0.4012017
79	0xbebc7148	-0.36805177
80	0xbec3a293	-0.38209972
81	0xbeed806b	-0.46387038
82	0x3ea7edd8	0.32798648
83	0xbc6f0e32	-0.014590787
84	0x3eb24903	0.3482133
85	0xbea7379a	-0.32659608
86	0x3f400107	0.7500157
87	0xbee9eca9	-0.4568837
88	0xbd050867	-0.032478716
89	0x3ea971f7	0.3309476
90	0x3f0116e6	0.50425565
91	0xbeb840d2	-0.35986954
92	0xbf6450c8	-0.8918576
93	0xbeb15de7	-0.34641954
94	0xbd7f06df	-0.062262412
95	0xbf47992c	-0.77968097
96	0xbf6fef8a	-0.9372488
97	0xbf50d95a	-0.8158165
98	0xbe600e03	-0.21880345
99	0xbf02ca8a	-0.510903
100	0xbea2d9df	-0.31806847
101	0xbf250a40	-0.64468765
102	0xbddb90e7	-0.10720997
103	0xbb866158	-0.0041009597
104	0xbed0b5d7	-0.40763733
105	0xbf67bc88	-0.9052205
106	0xbf41da55	-0.75723773
107	0xbe6b257e	-0.22963521
108	0xbed6f6e0	-0.41985226
109	0xbf0daf3e	-0.55345523
110	0xbecf31d7	-0.40467712
111	0xbf776ecc	-0.9665344
112	0xbe8647cd	-0.26226655
113	0xbea227e0	-0.31671047
114	0xbdf8c346	-0.121466205
115	0xbe1ff2dd	-0.15619989
116	0x3da250a0	0.07925534
117	0x3cfac3fb	0.030611029
118	0xbf02c150	-0.5107622
119	0xbdc5103a	-0.096222356
120	0xbeae8ffe	-0.34094232
121	0x3d1e51da	0.03865228
122	0x3db6b0b6	0.08920424
123	0xbe51ebcf	-0.2050011
124	0xbe1d8a87	-0.15384875
125	0x3f028a72	0.509925
126	0xbe6cf26a	-0.23139349
127	0xbebda40d	-0.37039223
128	0xbf311caf	-0.6918439
129	0x3f56c73b	0.8389775
130	0x3f1a9f05	0.60398895
131	0xbf0989aa	-0.53725684
132	0xbf24d3bf	-0.643856
133	0xbed69063	-0.41907033
134	0xbe8bac07	-0.27279684
135	0xbdaec61c	-0.0853388
136	0xbdff4401	-0.124641426
137	0xbd792a6d	-0.060831476
138	0x3e0bc9b6	0.13651165
139	0xbe8f3a2b	-0.27974066
140	0xbf12f8a9	-0.57410675
141	0x3f670dba	0.9025532
142	0x3ecc2ba0	0.39877033
143	0xbde40f89	-0.111357756
144	0xbdebd433	-0.11515083
145	0xbf555ff6	-0.8334955
146	0xbe546a17	-0.20743595
147	0xbf3a2ebf	-0.7272758
148	0xbf6fdc61	-0.93695647
149	0x3eee40a7	0.465337
150	0xbf9806fc	-1.1877131
151	0xbf2c896c	-0.6739719
152	0xbf6be4cd	-0.92146
153	0x3e07e91c	0.13272518
154	0xbeb640ec	-0.35596406
155	0x3eeeba6b	0.466266
156	0xbe2c171f	-0.16805695
157	0xbe87f206	-0.26551837
158	0xbec40aaf	-0.382894
159	0xbe8e9bc0	-0.27853203
160	0xbea1d9a5	-0.31611362
161	0xbf2b5ede	-0.6694163
162	0x3d52ede6	0.05149641
163	0xbe93167e	-0.28728098
164	0x3e4b412d	0.19849081
165	0xbe9ed876	-0.31024522
166	0xbca1d1dc	-0.019753389
167	0x3dd72878	0.10505766
168	0xbf2dbf5f	-0.67870134
169	0x3f2c0b9c	0.67205215
170	0xbe1690df	-0.14703701
171	0xbf3a566a	-0.7278811
172	0xbe3cfa06	-0.18454751
173	0xbe979bf6	-0.29611176
174	0x3f072251	0.5278674
175	0x3e1da7fa	0.15396109
176	0xbe9098cd	-0.28241578
177	0x3f8936fb	1.0719904
178	0xbf059e0a	-0.52194273
179	0xbe10be38	-0.14135063
180	0xbdd5cb31	-0.10439146
181	0xbeeca0e7	-0.4621651
182	0x3e491d2d	0.19640036
183	0xbebedf36	-0.3727967
184	0x3f375b08	0.7162328
185	0xbec7eafd	-0.3904647
186	0x3bd8ca05	0.0066158795
187	0xbe71b925	-0.23605783
188	0xbf8136cf	-1.0094851
189	0x3e956b8d	0.29183617
190	0x3f427cfb	0.75971955
191	0xbebfdb82	-0.3747216
192	0x3e9c9d18	0.30588603
193	0xbeb98534	-0.36234438
194	0xbebd0008	-0.36914086
195	0xbea9982f	-0.3312392
196	0x3eb57570	0.3544116
197	0xbe92ba0b	-0.28657565
198	0xbe25fb8e	-0.16209242
199	0xbf785f3a	-0.97020304
200	0xbdb94c5b	-0.09047767
201	0xbea68746	-0.3252508
202	0xbeba4c81	-0.36386493
203	0xbc320c42	-0.01086718
204	0xbf7614b6	-0.9612535
205	0xbebc4dc2	-0.36778075
206	0xbe4cc807	-0.1999818
207	0xbe27f337	-0.16401373
208	0xbe91cf0c	-0.28478277
209	0xbdd38bab	-0.10329374
210	0x3ef2e0a9	0.47437027
211	0xbe95163f	-0.29118535
212	0x3fb01580	1.3756561
213	0xbe0bc842	-0.13650611
214	0xbec01c30	-0.37521505
215	0x3eda0dce	0.42588657
216	0xbde6f1c9	-0.112765856
217	0x3ec7a0f0	0.38989973
218	0xbf0065fa	-0.50155604
219	0xbe321d59	-0.17394008
220	0xbc141239	-0.009037548
221	0xbeeca9be	-0.46223253
222	0xbf4d3c17	-0.80169815
223	0xbf31db29	-0.69475037
224	0x3ea6204e	0.32446522
225	0xbeb2a3d4	-0.34890616
226	0xbed3b4aa	-0.41348773
227	0x3dbcedb1	0.092250235
228	0x3ebec79a	0.3726166
229	0xbf0d19aa	-0.55117285
230	0x3dbfad9d	0.09359286
231	0xbeae72d2	-0.34071976
232	0x3e3025c9	0.17201914
233	0xbf3394a5	-0.7014869
234	0x3e0185c9	0.12648691
235	0xbe8baf64	-0.2728225
236	0xbdb03143	-0.08603146
237	0xbf1f4ab0	-0.6222334
238	0xbecd6c55	-0.40121713
239	0xbe57769b	-0.21041338
240	0x3d2774d9	0.04088292
241	0x3f009e2b	0.50241345
242	0xbed6af1c	-0.41930473
243	0xbf11b8eb	-0.5692279
244	0xbea2767e	-0.31731027
245	0xbe108491	-0.1411307
246	0xbd3abedc	-0.045592174
247	0xbe716d71	-0.23576905
248	0xbe149349	-0.1450931
249	0xbe93dddd	-0.28880206
250	0xbe90a698	-0.282521
251	0xbdc06cb2	-0.09395732
252	0xbf2fcc93	-0.6867153
253	0x3e3c6f3d	0.18401809
254	0x3d31ff28	0.043456227
255	0xbf4d3e96	-0.80173624

linear2.weight f4 [3, 256]
0	0xbeab43fe	-0.3345031
1	0xbe46f731	-0.19430234
2	0x3c9e405f	0.019317804
3	0x3cabfce4	0.020994611
4	0x3d056e21	0.03257573
5	0xbddb54f5	-0.10709564
6	0xbf00b948	-0.50282717
7	0xbe931fb5	-0.28735128
8	0x3e7dcd8b	0.2478544
9	0x3e200391	0.1562636
10	0x3d09da18	0.033655256
11	0xbcf74ac3	-0.030187016
12	0xbee650b2	-0.4498344
13	0xbf19ea72	-0.6012336
14	0xbeefc945	-0.46833244
15	0xbcf7cacb	-0.030248066
16	0xbec6eafd	-0.38851157
17	0xbdd977d1	-0.10618556
18	0x3bc8a299	0.006122899
19	0xbd83998f	-0.06425773
20	0xbc88c68e	-0.01669624
21	0x3edf7c41	0.43649486
22	0x3e81b338	0.25332046
23	0xbbbe2322	-0.005802528
24	0xbc631fc6	-0.013862556
25	0x3dca73fa	0.09885402
26	0xbf35e9e3	-0.7106001
27	0x3e14ba48	0.14524186
28	0xbf052309	-0.52006584
29	0xbe437b43	-0.1908999
30	0xbdb92e29	-0.090420075
31	0x3ed2d159	0.41175345
32	0xbe821149	-0.25403813
33	0x3f3b13d9	0.7307716
34	0xbe3b747e	-0.18306157
35	0xbedc4801	-0.43023685
36	0xbe5dafa9	-0.2164904
37	0xbef313a8	-0.47475934
38	0xbd8cab08	-0.06868559
39	0x3e2fc724	0.1716581
40	0xbed23825	-0.4105846
41	0xbdfdb37f	-0.12387752
42	0xbdd37449	-0.10324914
43	0x3bcb3795	0.0062016943
44	0xbdb10b04	-0.08644679
45	0xbeb86db6	-0.36021203
46	0x3c3ed027	0.011646307
47	0xbd29f6d5	-0.041495163
48	0x3d49ffaa	0.049316086
49	0xbeb26cdc	-0.34848678
50	0xb97c7937	-0.00024077749
51	0x3ece6b50	0.40316248
52	0xbd647dd7	-0.055784073
53	0xbe373416	-0.17890963
54	0xbb8ee1f3	-0.0043604313
55	0x3c81cb34	0.015843965
56	0xbe84bac3	-0.25923738
57	0xbe526de3	-0.20549731
58	0xbd211269	-0.039324198
59	0x3e9b2789	0.303036
60	0x3cc4e0b8	0.024032936
61	0x3f06d760	0.52672386
62	0xbc338191	-0.010956184
63	0xbe92c97f	-0.28669354
64	0xbf16600f	-0.58740324
65	0x3d8f3750	0.06992972
66	0xbc7fb75d	-0.015607682
67	0x3c35452f	0.011063858
68	0xbe9664b8	-0.29373717
69	0xbb8c8022	-0.0042877356
70	0x3e5035e8	0.20333064
71	0xbe58fbde	-0.2118983
72	0xbf1c2853	-0.6099903
73	0xbe05f7b3	-0.13082771
74	0xbd990d89	-0.07473285
75	0x3e86157c	0.26188266
76	0x3e9e8a26	0.30964774
77	0xbe73d7a0	-0.23812723
78	0x3ed4ba76	0.41548508
79	0xbe95a230	-0.29225302
80	0xbe8e3db3	-0.27781448
81	0x3d25eb69	0.040507708
82	0x3f02dca1	0.51117903
83	0x3e0bc6e5	0.13650091
84	0xbc25d9b8	-0.010122709
85	0xbdc7e81e	-0.0976107
86	0x3ed90aee	0.4239115
87	0x3c061f61	0.008186192
88	0x3dd71b28	0.105032265
89	0x3ec3d93f	0.38251683
90	0x3ec45311	0.38344625
91	0xbe1a17fc	-0.15048212
92	0x3b80e897	0.003933977
93	0xbae7e414	-0.0017691874
94	0xbd470f3f	-0.048598524
95	0xbde61b41	-0.11235667
96	0xbc728822	-0.014802964
97	0xbdf3ead0	-0.11910021
98	0x3e3b2401	0.18275453
99	0xbc237b82	-0.009978177
100	0xbf45753b	-0.77132004
101	0xbc2a9152	-0.010410624
102	0xba94da94	-0.0011356645
103	0x3ce3c4c5	0.027803788
104	0xbe805b90	-0.25069857
105	0x3dac5b5c	0.08415863
106	0xbe0cad94	-0.1373809
107	0xbf1fb266	-0.6238159
108	0xbe831940	-0.25605202
109	0x3df4243d	0.119209744
110	0x3e27c85b	0.16385023
111	0x3e76bb8d	0.24094982
112	0xbeeb79fe	-0.4599151
113	0xbe9613d9	-0.29312018
114	0xbb549be9	-0.0032441563
115	0xbdf49fd9	-0.11944551
116	0xbf8714f1	-1.0553266
117	0xbe8142e1	-0.25246337
118	0xbea55788	-0.32293344
119	0xbf81fe35	-1.0155703
120	0xbed81fd8	-0.42211795
121	0xbc4fb259	-0.012676799
122	0xbf022085	-0.5083087
123	0xbd15d8d3	-0.036583733
124	0xbe946fd4	-0.28991568
125	0x3dcced18	0.100061595
126	0xbbc649be	-0.006051271
127	0x3a078b12	0.00051705644
128	0xbd5fd8f6	-0.05465027
129	0x3eb5d42c	0.35513437
130	0x3ed962e4	0.4245826
131	0xbe8ee4eb	-0.27909026
132	0xbdb76e66	-0.08956604
133	0xbda6d9f4	-0.0814704
134	0xbda9b04f	-0.08285581
135	0xc052d8c1	-3.2944796
136	0xbd3ff7b8	-0.046867102
137	0xbf05bda5	-0.522425
138	0x3ec15366	0.3775894
139	0x3ee3f5ac	0.4452337
140	0xbe695d49	-0.22789492
141	0x3e8d4aa0	0.27595997
142	0x3f1a5070	0.6027899
143	0xbe52ceaf	-0.20586656
144	0x3c3caee9	0.011516311
145	0xbe0a6343	-0.13514428
146	0xbf4453ea	-0.7669054
147	0xbf012d86	-0.5046009
148	0xbe3a92c7	-0.18220054
149	0x3eac23ed	0.3362116
150	0x3c3cfe67	0.011535264
151	0xbdc86593	-0.09784999
152	0xbd1644ff	-0.036686894
153	0xbdbd873c	-0.092543095
154	0x3e556be0	0.20841932
155	0x3ef72bc0	0.48275566
156	0x3e6cd831	0.23129345
157	0xbd172f76	-0.036910497
158	0xbc37155c	-0.011174526
159	0xbda76170	-0.081728816
160	0xbd23a883	-0.039955627
161	0x3c84a0e4	0.01619
162	0xbe0fba46	-0.14035901
163	0x3d936870	0.07197654
164	0x3e01ab0b	0.12662904
165	0x3c4fc256	0.012680611
166	0xbf153915	-0.58290225
167	0x3ef09ae2	0.46993166
168	0xbe0c0853	-0.1367505
169	0x3f2e9087	0.6818928
170	0xbe1de400	-0.15419006
171	0x3edb8eac	0.42882288
172	0xbd97ba17	-0.07408541
173	0xbea09de0	-0.3137045
174	0x3f01a98c	0.50649333
175	0x3bb5ced5	0.005548338
176	0xbe123814	-0.14279205
177	0x3f237cfc	0.63862586
178	0xbca15ee3	-0.019698566
179	0xbdd2cad2	-0.10292591
180	0xbe13adab	-0.14421718
181	0xbc01ce34	-0.007922698
182	0x3f054dfe	0.5207213
183	0xbdfbf6cb	-0.123029314
184	0x3e704860	0.23465109
185	0x3c50c614	0.012742538
186	0xbee56242	-0.44801527
187	0xbe5ddb13	-0.21665601
188	0xbeb1d5f3	-0.34733543
189	0xbeec0e94	-0.46104872
190	0x3f04639d	0.517145
191	0xbe6fc7ab	-0.23416011
192	0x3e6e2a9b	0.2325844
193	0xbe7fa540	-0.24965382
194	0xbd763bc1	-0.06011558
195	0xbee05a98	-0.43819118
196	0x3e56eb56	0.20988211
197	0xbd7e6ae4	-0.062113658
198	0x3e6fd771	0.23422028
199	0xbd8735ad	-0.06602035
200	0xbf4e8171	-0.8066626
201	0xbbf6431d	-0.0075153247
202	0xbc578f3c	-0.013156708
203	0x3e6b57f5	0.22982772
204	0xbe106c5b	-0.14103834
205	0x3aaac9bf	0.0013030096
206	0xbf1c1d56	-0.60982263
207	0x3e5ca1ca	0.21546093
208	0xbe74f1b3	-0.23920326
209	0xbb8396ea	-0.004015793
210	0x3f0f1058	0.55884314
211	0x3daa152a	0.08304818
212	0x3ebafe32	0.3652206
213	0x3cdbe216	0.026841205
214	0x3cd0fede	0.025512155
215	0x3ebcf4c1	0.36905482
216	0xbdaefcab	-0.08544286
217	0x3e99c9a8	0.30036664
218	0xbed22381	-0.41042712
219	0x3b6db2c3	0.003626988
220	0x4007af92	2.120091
221	0x3e2f448f	0.17115997
222	0x3ecfbc90	0.4057355
223	0xbe032806	-0.12808236
224	0x3ee3b18f	0.44471404
225	0xbed312a0	-0.41225147
226	0x3d5500a1	0.052002553
227	0xbe0231eb	-0.12714355
228	0x3de378d6	0.11107032
229	0xbeb33572	-0.35001713
230	0x3dd0db51	0.10198081
231	0xbda32f62	-0.07968022
232	0xbd01d703	-0.03169919
233	0xbd99ba90	-0.07506287
234	0x3e9bd15c	0.30433166
235	0xbf173f1f	-0.5908069
236	0xbcf704bf	-0.03015363
237	0xbe337cee	-0.17528126
238	0xbe5906ac	-0.21193951
239	0xba0cc94f	-0.00053705735
240	0x3f3ad86f	0.729865
241	0x3e24b224	0.1608358
242	0x3d0a3d1f	0.033749696
243	0x3ce40ba6	0.027837586
244	0x3c2f6161	0.010704369
245	0x3c8c2be6	0.017110776
246	0xbf0af09e	-0.542734
247	0xbd3e93b8	-0.046527594
248	0xbea52ca8	-0.32260633
249	0xbf144e3b	-0.5793187
250	0x3c634341	0.013871015
251	0xbee45664	-0.4459716
252	0xbcd136f2	-0.025538895
253	0xbd6f116c	-0.058366224
254	0xbf368075	-0.7128976
255	0xbe61617b	-0.22009842

linear2.bias f4 [3]
0	0x3f433fab	0.76269025
1	0x3d1d0311	0.038333002
2	0xbd730de6	-0.059339426
