model/SnakeCarlos_63_aggresive.pth (torch, 17823 bytes, 4 tensors)

linear1.weight f4 [256, 12]
-0.19490057 -0.506469 0.016360018 0.076773025 0.13361719 -0.39502552 0.22514667 0.38319013
-0.28269026 -0.21467525 -0.28678557 0.19012256 -0.34150597 0.085714154 -0.336259 -0.0123749785
-0.42862284 0.29615352 0.013241964 0.03851551 -0.40711546 0.07155796 0.1962523 0.1520675
0.16305667 0.56265354 -0.37205145 0.09321427 -0.053446613 0.3240431 -0.0948714 0.18686238
-0.11362854 -0.20498966 0.0740307 -0.07891008 0.030542493 -0.3381272 0.33983263 -0.29121467
0.20735624 0.36696845 -0.3455655 -0.16136485 0.13635877 -0.33917695 0.3480223 0.0025666365
0.21513924 0.121623665 -0.064686745 -0.3017921 0.13585444 -0.17933992 -0.22193296 -0.416246
-0.15673299 0.14304353 0.0805882 -0.10452469 -0.28322983 0.050109062 0.31033593 -0.23683904
0.024650205 -0.17131256 -0.024779528 0.20151618 -0.026727024 -0.26942405 0.2293162 0.040924806
0.05353734 0.08963846 -0.096160136 -0.04175221 0.008366661 0.0018988388 0.07706526 0.3909587
0.27620676 0.37330532 0.30825174 0.05090398 0.050303712 -0.2671042 -0.033951107 -0.3872216
0.49732912 -0.13330603 -0.2199985 -0.53231966 0.080263846 -0.36456713 -0.2814276 -0.03555886
-0.2487222 0.17706122 0.026837593 0.15680526 0.31075838 -0.2150815 -0.1575539 -0.0058097476
-0.32380584 -0.3281224 0.1033626 -0.07063524 -0.083574414 -0.02672661 0.039968543 -0.2254565
-0.25477588 0.13019142 -0.32743734 -0.020142924 -0.13849775 -0.20509289 0.19171742 -0.45336235
-0.5860437 0.28716335 0.05401915 0.19308828 -0.5353561 0.107938245 0.21564758 0.07401933
-0.36746714 0.17527339 0.17295273 0.05955543 -0.29918355 -0.038595337 -0.48337203 -0.18491498
0.15486231 -0.006079158 -0.18815672 0.2884887 -0.1992045 0.32075593 -0.09099151 -0.10605079
-0.006829009 0.021435501 -0.22411816 0.43881434 -0.007946508 -0.46802887 0.023601644 -0.50503147
-0.12277864 0.2984923 -0.15586475 0.010842251 -0.18834586 0.10459123 -0.04428008 -0.33507028
0.40161568 0.26457044 -0.47747877 -0.4638259 0.09998108 0.32236704 -0.38264343 0.026667738
0.16672596 0.16510749 0.5018285 -0.19962066 -0.3864093 -0.15085176 -0.37357482 -0.19153282
0.45480567 0.26490006 0.30075845 -0.012912785 0.25951457 0.0077628004 -0.1037024 0.15665473
0.39326847 -0.45453826 -0.20584759 -0.22640632 -0.4820385 0.3758928 -0.026494695 0.07755712
-0.1717713 0.12768175 0.13969848 -0.29076385 0.06413075 0.33322328 0.15081967 -0.23245175
-0.46582612 0.12494341 0.033550702 -0.14318281 0.28713682 -0.27952147 0.141884 0.09975911
-0.22021334 -0.31666556 0.104776874 0.37673274 0.16754657 0.27153432 -0.0552503 0.030258464
-0.19527024 0.1628553 -0.50279313 -0.26894218 0.28608775 -0.07672195 0.015066514 0.47439477
-0.27651584 -0.04299552 -0.038486954 0.04218014 0.07519262 0.29294613 0.18962769 -0.17025277
0.10583316 -0.11877109 -0.037712328 -0.11245584 -0.31255904 0.12199977 0.1783023 -0.30990863
-0.011502855 -0.3019993 -0.2674153 -0.30078894 -0.12336702 -0.065295614 -0.18872218 0.40590256
0.3015428 0.13675435 0.33480304 -0.367658 0.41459656 -0.066478744 0.0905729 -0.3208213
00000000: 0494 47be f4a7 01bf 7205 863c 2d3b 9d3d
00000010: f2d2 083e c940 cabe d98c 663e 7f31 c43e
00000020: c7bc 90be d4d3 5bbe 8fd5 92be 7daf 423e
00000030: dfd9 aebe e78a af3d 242a acbe 6cc0 4abc
00000040: 7474 dbbe 6fa1 973e d3f4 583c 70c2 1d3d
00000050: 7071 d0be fb8c 923d 5df6 483e 95b7 1b3e
00000060: 54f8 263e 100a 103f 877d bebe 20e7 be3d
00000070: d6ea 5abd fae8 a53e f04b c2bd da58 3f3e
00000080: 14b6 e8bd cfe8 51be 689d 973d 9c9b a1bd
00000090: 4034 fa3c 021f adbe 8bfe ad3e 171a 95be
000000a0: 3255 543e 4ae3 bb3e f6ed b0be d43c 25be
000000b0: a2a1 0b3e 9aa8 adbe fb2f b23e 0435 283b
000000c0: 764d 5c3e d415 f93d 7c7a 84bd 7e84 9abe
000000d0: 6d1d 0b3e e2a4 37be 6542 63be 321e d5be
000000e0: 9d7e 20be 017a 123e 6d0b a53d 0a11 d6bd
000000f0: 8003 91be 293f 4d3d 5ae4 9e3e ef85 72be
00000100: 3aef c93c 8f6c 2fbe 70fe cabc 425a 4e3e
00000110: a2f2 dabc f3f1 89be ded1 6a3e c5a0 273d
00000120: f849 5b3d 5e94 b73d 9bef c4bd 5e04 2bbd
00000130: 5214 093c 75e2 f83a 64d4 9d3d bd2b c83e
00000140: f96a 8d3e e021 bf3e 2cd3 9d3e b180 503d
00000150: 440b 4e3d e2c1 88be 5110 0bbd e941 c6be
00000160: eca1 fe3e 6081 08be 4947 61be 1a46 08bf
00000170: 5f61 a43d 8ba8 babe 4717 90be 2ba6 11bd
00000180: 08b1 7ebe 894f 353e 83da db3c 8f91 203e
00000190: b91b 9f3e 533e 5cbe cf55 21be b25f bebb
000001a0: e1c9 a5be a9ff a7be c5af d33d 35a9 90bd
000001b0: 1029 abbd c3f1 dabc 0eb6 233d 12de 66be
000001c0: fc71 82be e650 053e dea5 a7be c602 a5bc
000001d0: 5bd2 0dbe df03 52be 9251 443e 1c1f e8be
000001e0: f606 16bf 1307 933e 2f43 5d3d efb8 453e
000001f0: 190d 09bf ba0e dd3d b8d2 5c3e 7297 973d
00000200: a724 bcbe de7a 333e 851a 313e 65f0 733d
00000210: 962e 99be 2516 1ebd 8a7c f7be 5a5a 3dbe
00000220: 3a94 1e3e ac33 c7bb 28ac 40be cab4 933e
00000230: 44fc 4bbe 1f3a a43e c259 babd 2831 d9bd
00000240: e1c5 dfbb 8199 af3c 3b7f 65be 46ac e03e
00000250: 1232 02bc 7ba1 efbe 3c58 c13c be49 01bf
00000260: 5e73 fbbd fcd3 983e 029b 1fbe b2a3 313c
00000270: bddd 40be ed33 d63d 075f 35bd 558e abbe
00000280: 92a0 cd3e c775 873e 1978 f4be 977a edbe
00000290: e1c2 cc3d 4b0d a53e d7e9 c3be 4d76 da3c
000002a0: 36ba 2a3e f011 293e d577 003f 5c69 4cbe
000002b0: 71d7 c5be e278 1abe 3345 bfbe 2e21 44be
000002c0: 4adc e83e fba0 873e 03fd 993e 2590 53bc
000002d0: 18df 843e 175f fe3b ed61 d4bd 196a 203e
000002e0: 7c5a c93e 3db9 e8be b6c9 52be 0fd7 67be
000002f0: c0cd f6be 0575 c03e 670b d9bc 44d6 9e3d
00000300: d1e4 2fbe 01bf 023e 1e0d 0f3e 00df 94be
00000310: fc56 833d 3e9c aa3e 7970 1a3e d507 6ebe
00000320: c380 eebe 55e2 ff3d 766c 093d 849e 12be
00000330: 9903 933e 701d 8fbe 0a4a 113e 814e cc3d
00000340: 9b7f 61be fd21 a2be 4295 d63d 1de3 c03e
00000350: 5491 2b3e 8c06 8b3e 234e 62bd 99e0 f73c
00000360: ecf4 47be 8ac3 263e 0db7 00bf cab2 89be
00000370: 187a 923e 6620 9dbd 8ad9 763c dfe3 f23e
00000380: 7c93 8dbe 121c 30bd 7fa4 1dbd 15c5 2c3d
00000390: 97fe 993d 09fd 953e c32d 423e be56 2ebe
000003a0: 0ebf d83d 423e f3bd 3e78 1abd 3f4f e6bd
000003b0: bd07 a0be 04db f93d e194 363e 58ac 9ebe
000003c0: 7976 3cbc a79f 9abe a8ea 88be 0201 9abe
000003d0: d9a7 fcbd b5b9 85bd 6340 41be 76d2 cf3e
000003e0: d163 9a3e 5509 0c3e 4e6b ab3e ab3d bcbe
000003f0: 0046 d43e 0226 88bd 497e b93d b042 a4be

linear1.bias f4 [256]
-0.031138377 0.20857051 -0.14538904 -0.06894219 -0.05043398 -0.010829726 -0.36931247 0.3926565
-0.24558263 0.02257833 0.28607875 -0.14946826 0.091804504 0.13129231 -0.12856369 0.088166475
0.18929748 -0.08338659 -0.29821545 -0.42170626 -0.16592413 -0.20974477 -0.15196669 0.18938252
-0.18565382 0.06864479 -0.24223566 0.021117968 0.19445483 -0.26894546 -0.09674348 -0.1557944
0.11042244 -0.00017885433 -0.20461474 -0.03883406 0.07257612 -0.19393525 0.01830837 -0.2219876
0.052305803 0.15661243 0.027338924 0.43987638 -0.2544571 -0.093562245 0.026798772 -0.20813489
0.014853607 -0.02241642 -0.23431827 -0.24761705 0.1737001 -0.32142705 0.22939032 -0.063114285
0.20573676 0.517518 0.52191013 -0.12152706 0.25582483 -0.04091023 -0.10320585 -0.05518832
-0.22024296 0.06834214 -0.10951636 -0.20492484 -0.39741853 0.24606855 -0.0944482 0.13599633
-0.103877716 -0.10648802 0.1521822 0.14053653 -0.29706275 0.34693065 0.11531234 -0.28568083
-0.17189035 -0.29348037 -0.042360887 -0.18568382 -0.036995206 -0.1329559 -0.043703377 0.015115358
0.017030334 0.47070011 0.049234588 -0.08667704 0.42195213 0.04403643 0.12351036 0.581215
-0.111037165 -0.24585754 -0.23365173 -0.19388571 -0.20748441 -0.40118748 -0.18071641 0.0069320407
0.17127407 0.24399689 0.17342523 0.08489092 0.1545793 -0.14161423 -0.28950667 0.09503063
0.2763421 -0.11849529 0.55963904 -0.15110146 0.046580262 -0.11848425 -0.0031610166 0.013535417
-0.04155431 -0.20261258 -0.30840674 -0.24921282 -0.14944053 -0.09969201 -0.15633748 -0.14424713
-0.08268344 -0.13863084 -0.364668 -0.28447115 -0.008795465 -0.22981378 -0.23961033 0.12555952
-0.21871544 -0.012473311 0.15455914 -0.015021549 -0.11871243 -0.20243523 -0.21705908 -0.08075656
0.20824693 0.09544567 0.06773058 0.116633415 0.21822587 -0.046495557 -0.008154223 -0.32744604
0.11579221 -0.0011264089 -0.04568379 -0.2652715 -0.23584324 -0.18630202 -0.1453784 -0.1557788
-0.003620019 -0.27722853 0.0894204 0.14955701 0.16586298 -0.13949277 -0.097195305 -0.1597054
-0.30549094 -0.057182003 -0.13763145 -0.05300504 -0.025160458 -0.045974724 -0.0433885 0.04812965
0.059492234 -0.19263631 -0.17937103 -0.086849876 0.22867386 0.095027775 -0.16825055 -0.2034543
-0.014638242 -0.08262038 -0.16546561 0.30816862 0.14094259 -0.07730002 0.10475063 -0.03042495
-0.104147695 -0.043570608 0.2845385 -0.18673187 -0.36432663 -0.038276777 0.26554117 0.49201944
-0.306989 -0.3470446 -0.11213769 0.40947554 -0.061598662 0.0017055292 0.07490616 -0.025482915
-0.38613054 -0.15842186 -0.06278261 -0.17734744 -0.051829807 -0.14671771 0.23256859 0.10376248
-0.19969422 -0.030995782 0.53143334 -0.120181836 -0.31235057 0.16671525 0.56820935 -0.19308916
-0.17704315 -0.1353897 0.11858383 0.029805489 -0.2686913 -0.26997712 0.10683211 -0.36990163
-0.0340384 -0.24155377 0.003017388 -0.25136486 -0.19733122 -0.08013661 -0.28522584 -0.36222517
-0.3852564 -0.06335599 0.14123376 0.21296199 0.15748858 -0.00042534675 0.343709 -0.0844927
-0.3775705 0.07254199 0.14765418 0.10415979 -0.1634965 -0.37504435 -0.19378674 -0.2013388
00000000: e915 ffbc 8293 553e dde0 14be 9031 8dbd
00000010: dc93 4ebd 2a6f 31bc 8616 bdbe 460a c93e
00000020: 037a 7bbe 31f6 b83c ea78 923e 350e 19be
00000030: 0004 bc3d 7e71 063e 33a6 03be a090 b43d
00000040: 33d7 413e 97c6 aabd b2af 98be e2e9 d7be
00000050: 04e8 29be 55c7 56be 289d 1bbe 7eed 413e
00000060: 091c 3ebe a495 8c3d a00c 78be 97ff ac3c
00000070: 2b1f 473e 38b3 89be 7221 c6bd 9188 1fbe
00000080: 2925 e23d d88a 3bb9 8786 51be 7710 1fbd
00000090: caa2 943d f696 46be 6ffb 953c b850 63be
000000a0: 9c3e 563d 025f 203e e1f5 df3c 7a37 e13e
000000b0: 3348 82be 909d bfbd 1989 db3c 5021 55be
000000c0: 8b5c 733c a4a2 b7bc 21f1 6fbe 538f 7dbe
000000d0: 70de 313e 1692 a4be 4ce5 6a3e 1042 81bd
000000e0: a8ac 523e 0f7c 043f e79b 053f 2ee3 f8bd
000000f0: 79fb 823e 7c91 27bd 975d d3bd 260d 62bd
00000100: 5f87 61be f7f6 8b3d 1d4a e0bd d1d7 51be
00000110: 717a cbbe 65f9 7b3e 0f6e c1bd 9f42 0b3e
00000120: d7bd d4bd 6416 dabd a7d5 1b3e cfe8 0f3e
00000130: 9c18 98be e5a0 b13e e028 ec3d c244 92be
00000140: 0604 30be 0f43 96be 9c82 2dbd e623 3ebe
00000150: 4988 17bd 9725 08be 5002 33bd 68a6 773c
00000160: 3383 8b3c 9bff f03e 35aa 493d bb83 b1bd
00000170: 1c0a d83e 8b5f 343d 00f3 fc3d 82ca 143f
00000180: 7467 e3bd 14c2 7bbe 6642 6fbe fa89 46be
00000190: cb76 54be 7268 cdbe b90d 39be 2c26 e33b
000001a0: 7862 2f3e 52da 793e 6296 313e 4adb ad3d
000001b0: 094a 1e3e 5203 11be 383a 94be 6b9f c23d
000001c0: b67c 8d3e a9ad f2bd 8144 0f3f 57ba 1abe
000001d0: f2ca 3e3d dfa7 f2bd 0f29 4fbb a7c3 5d3c
000001e0: da34 2abd ac79 4fbe 7de7 9dbe a531 7fbe
000001f0: f006 19be 532b ccbd ef16 20be 85b5 13be
00000200: ef55 a9bd 3ef5 0dbe c4b5 babe 34a6 91be
00000210: db1a 10bc 4e54 6bbe 695c 75be ad92 003e
00000220: f1f6 5fbe dc5c 4cbc c044 1e3e f11c 76bc
00000230: 811f f3bd 2e4b 4fbe bc44 5ebe b263 a5bd
00000240: af3e 553e 0579 c33d 55b6 8a3d 80dd ee3d
00000250: 9a76 5f3e 2072 3ebd 4a99 05bc 02a7 a7be
00000260: 7724 ed3d 03a4 93ba ed1e 3bbd abd1 87be
00000270: e480 71be f5c5 3ebe 13de 14be 7a84 1fbe
00000280: d73d 6dbb e6f0 8dbe 0b22 b73d 7925 193e
00000290: fcd7 293e 31d7 0ebe 550e c7bd d089 23be
000002a0: 4f69 9cbe ad37 6abd 42ef 0cbe d01b 59bd
000002b0: 4e1d cebc fe4f 3cbd 24b8 31bd 9923 453d
000002c0: 21ae 733d 7442 45be 0aad 37be 59de b1bd
000002d0: 7b29 6a3e ec9d c23d df49 2cbe 5356 50be
000002e0: 3dd5 6fbc e034 a9bd d16f 29be 47c8 9d3e
000002f0: 4153 103e 794f 9ebd 8087 d63d bf3d f9bc
00000300: 634b d5bd 1877 32bd 08af 913e a436 3fbe
00000310: 0589 babe 1cc8 1cbd 03f5 873e f9e9 fb3e
00000320: aa2d 9dbe d4af b1be 72a8 e5bd c7a6 d13e
00000330: e14e 7cbd 108c df3a 6768 993d 8cc1 d0bc
00000340: e7b2 c5be 5739 22be 2b94 80bd 919a 35be
00000350: 7e4b 54bd 2b3d 16be 7626 6e3e 6c81 d43d
00000360: a47c 4cbe deea fdbc 040c 083f e521 f6bd
00000370: 6aec 9fbe 67b7 2a3e 2b76 113f 2ab9 45be
00000380: cd4a 35be 99a3 0abe 14dc f23d a42a f43c
00000390: e891 89be 713a 8abe cbca da3d bf63 bdbe
000003a0: d96b 0bbd df59 77be 5fbf 453b e5b2 80be
000003b0: 3211 4abe aa1e a4bd 1f09 92be 9475 b9be
000003c0: 5440 c5be c9c0 81bd 959f 103e b512 5a3e
000003d0: b044 213e 1301 dfb9 a0fa af3e 820a adbd
000003e0: ec50 c1be e590 943d a832 173e ba51 d53d
000003f0: a06b 27be d005 c0be 0870 46be c22b 4ebe

linear2.weight f4 [3, 256]
0.09622561 0.24575491 0.010056323 -0.11477476 -0.055799447 0.010758644 -0.12861998 0.25877684
0.027072633 0.06201987 0.30418512 -0.03536533 -0.49878144 0.436587 -0.19174518 -0.45144892
0.2754554 -0.121239655 -0.264649 -0.044365544 -0.2482851 -0.33385196 0.2762513 0.06357116
-0.05246635 0.12305505 -0.2167598 0.15153095 -0.059703946 -0.2111581 -0.016897121 -0.113186516
-0.4303502 -0.22816496 -0.07185208 0.003716862 0.4649594 -0.25300166 -0.14380154 -0.15498355
-0.2855062 -0.78232807 -0.18549831 0.4861408 -0.15333243 -0.38866708 0.46985134 0.028351951
-0.3269679 -0.30498114 -0.04385832 0.053829156 0.3564486 -0.18510053 0.07349874 -0.052202776
-0.15954044 0.44800705 0.45851564 0.3116187 0.40240154 0.08909081 -0.28237894 -0.5147
-0.08675035 -0.1077149 0.03525508 -0.20065168 -0.29325852 0.30767655 -0.18310356 0.4688205
0.13531703 0.2109538 0.4035941 0.054950338 -0.13743989 0.12974565 0.2714779 -0.27569166
-0.034615807 0.012952716 -0.18515167 -0.32031387 0.006320551 -0.26041365 -0.17421047 -0.33679384
-0.2002045 0.26088002 -0.0006381022 -0.23376484 0.38877517 0.121253595 0.041869517 0.38469812
0.13348612 -0.020530835 -0.11314063 -0.38191375 -0.3891444 -0.29482707 -0.07793116 0.001834171
0.032541953 0.2908731 0.003673243 -0.19071138 0.35236898 -0.08054495 0.02432009 0.07555711
0.19901462 0.014095486 0.4790308 -0.23309354 -0.07931159 -0.5578682 0.37347296 -0.05952992
-0.029645892 -0.04290194 -0.078850836 -0.10893174 0.28104305 -0.28908092 0.022232719 -0.06984797
0.26316127 -0.19783778 0.014582253 0.0045849835 0.03888125 -0.123750426 -0.011190078 0.14283463
-0.387334 -0.34976304 0.29683927 0.35389584 0.019020967 0.120368354 0.29274946 -0.17966117
0.21907979 0.0066475435 -0.06467655 -0.747878 0.10763294 -0.09001024 -0.22352847 -0.032215998
0.20764284 -0.17114188 -0.049865436 -0.12290575 -0.47246236 -0.066291675 0.38795498 -0.28429413
0.32511342 -0.1790685 0.05373675 -0.38955617 -0.45531395 0.27827272 -0.22053817 -0.020453872
-0.014028754 0.12204594 -0.45100722 -0.02262152 -0.11090757 0.011075389 -0.09925722 0.3134357
-0.109656006 -0.5007868 -0.20947446 0.15884928 0.123667404 0.24830513 0.043108243 0.28570524
0.25197464 -0.09471076 0.0031075473 0.33483037 0.13880648 -0.08743706 0.074097805 0.027080137
-0.055245697 -0.49666408 0.34636799 -0.24107267 -0.19725734 -0.04596758 0.30274704 0.29519328
-0.050419834 0.010116137 0.0067307316 0.4857188 -0.15243632 0.29355425 -0.42077044 -0.0073136976
-0.22925158 -0.4596882 -0.06932702 -0.21359971 0.0161913 -0.1978401 0.38368922 0.32950476
-0.20388326 -0.0866906 0.24821967 -0.47166696 -0.245486 0.22169603 0.32633007 -0.011851943
-0.15157403 -0.04876782 0.054350305 0.18311602 -0.18222764 -0.11366649 -0.062433265 -0.027579341
0.23712951 -0.18369065 0.42958272 -0.022821367 0.026218316 -0.11741722 -0.28411633 0.0048779617
-0.004969176 -0.017190186 0.16124049 0.21130423 0.252125 0.010982749 0.3328208 -0.017972684
-0.004292613 -0.01766446 0.39841706 0.4142919 -0.42554045 -0.022128293 -0.094592646 -0.42003757
00000000: ef11 c53d 2da7 7b3e 47c3 243c 080f ebbd
00000010: f68d 64bd 0645 303c f5b4 03be 667e 843e
00000020: 6dc7 dd3c 8c08 7e3d 27be 9b3e 3cdb 10bd
00000030: 4860 ffbe 5588 df3e d958 44be 5024 e7be
00000040: 7d08 8d3e 7f4c f8bd 1380 87be a5b8 35bd
00000050: 733e 7ebe a5ee aabe cf70 8d3e 9931 823d
00000060: f5e6 56bd 4904 fc3d 48f6 5dbe ee2a 1b3e
00000070: 208c 74bd d439 58be d56b 8abc 55ce e7bd
00000080: dd56 dcbe 13a4 69be 2f27 93bd 9996 733b
00000090: 290f ee3e 6f89 81be b640 13be 02b4 1ebe
000000a0: de2d 92be a746 48bf 45f3 3dbe 72e7 f83e
000000b0: 2d03 1dbe 5fff c6be 5b90 f03e 5a42 e83c
000000c0: 5668 a7be 7d26 9cbe c8a4 33bd f67b 5c3d
000000d0: 6e80 b63e fe8a 3dbe 8286 963d 94d2 55bd
000000e0: 925e 23be 2e61 e53e 90c2 ea3e 7c8c 9f3e
000000f0: 9307 ce3e 3e75 b63d f993 90be 61c3 03bf
00000100: 2baa b1bd a199 dcbd a167 103d a277 4dbe
00000110: fb25 96be c887 9d3e 807f 3bbe 3e09 f03e
00000120: 8c90 0a3e 4604 583e e3a3 ce3e 9b13 613d
00000130: 0bbd 0cbe 0bdc 043e 27ff 8a3e 7527 8dbe
00000140: 4ec9 0dbd a137 543c 6698 3dbe 2e00 a4be
00000150: a01c cf3b f054 85be 3b64 32be 3e70 acbe
00000160: 6902 4dbe 1192 853e 5046 27ba 0d60 6fbe
00000170: 8a0d c73e ce53 f83d 5f7f 2b3d 27f7 c43e
00000180: 96b0 083e 4830 a8bc 46b6 e7bd 338a c3be
00000190: ef3d c7be 93f3 96be 5f9a 9fbd 9168 f03a
000001a0: b64a 053d 52ed 943e cbba 703b d849 43be
000001b0: b569 b43e c0f4 a4bd ed3a c73c b0bd 9a3d
000001c0: 7dca 4b3e c1f0 663c 8643 f53e 13b0 6ebe
000001d0: 1d6e a2bd 73d0 0ebf d937 bf3e a5d5 73bd
000001e0: f1db f2bc f2b9 2fbd 8c7c a1bd 9b17 dfbd
000001f0: e0e4 8f3e 6a02 94be 6421 b63c 740c 8fbd
00000200: 13bd 863e fd95 4abe 67ea 6e3c a13d 963b
00000210: f241 1f3d dd70 fdbd 9756 37bc 3e43 123e
00000220: a450 c6be 2414 b3be 51fb 973e d631 b53e
00000230: dcd1 9b3c af83 f63d 42e3 953e 19f9 37be
00000240: 7456 603e a3d3 d93b 2475 84bd ef74 3fbf
00000250: a96e dc3d 4a57 b8bd a6e4 64be ecf4 03bd
00000260: 53a0 543e d13f 2fbe b33f 4cbd 03b6 fbbd
00000270: 96e6 f1be eec3 87bd 09a2 c63e 008f 91be
00000280: 4475 a63e bc5d 37be 111b 5c3d e873 c7be
00000290: e91e e9be c379 8e3e c2d4 61be e18e a7bc
000002a0: dcd8 65bc 39f3 f93d 6bea e6be c450 b9bc
000002b0: 8223 e3bd 8c75 353c 5f47 cbbd a57a a03e
000002c0: 5493 e0bd 9033 00bf 7980 56be 63a9 223e
000002d0: 5645 fd3d b343 7e3e 4592 303d f547 923e
000002e0: d202 813e b7f7 c1bd fea7 4b3b e36e ab3e
000002f0: 4923 0e3e 3412 b3bd 97c0 973d 2ad7 dd3c
00000300: 5049 62bd c14a febe 2557 b13e c1db 76be
00000310: d4fd 49be 8048 3cbd a901 9b3e 9323 973e
00000320: 0785 4ebd 27be 253c 788d dc3b 22b0 f83e
00000330: 4418 1cbe be4c 963e 396f d7be bea7 efbb
00000340: edc0 6abe 405c ebbe 53fb 8dbd e2b9 5abe
00000350: 9ea3 843c 9896 4abe ea72 c43e d9b4 a83e
00000360: c6c6 50be d78a b1bd 4c2d 7e3e 557e f1be
00000370: af60 7bbe 4904 633e bc14 a73e a72e 42bc
00000380: 3936 1bbe c4c0 47bd 6d9e 5e3d c482 3b3e
00000390: e299 3abe fac9 e8bd 06ba 7fbd 12ee e1bc
000003a0: 14d2 723e 6719 3cbe 44f2 db3e e0f3 babc
000003b0: cbc7 d63c 7078 f0bd b277 91be 4fd7 9f3b
000003c0: 78d4 a2bb 6fd2 8cbc 3a1c 253e 2360 583e
000003d0: 8716 813e fdf0 333c 7d67 aa3e 733b 93bc
000003e0: 0ca9 8cbb 0fb5 90bc 52fd cb3e 111e d43e
000003f0: 70e0 d9be 6546 b5bc cab9 c1bd 2a0f d7be

linear2.bias f4 [3]
0.27618435 0.06486318 0.009222414
00000000: 0968 8d3e fdd6 843d 9c19 173c
